basics/diabeties.pt (torch, 5549 bytes, 6 tensors)

f_connected1.weight f4 [20, 8]
0.34741932 -0.037517745 0.3233278 -0.21480729 -0.32584313 0.17213222 -0.53693396 0.37371394
0.42219186 -0.06152433 0.17812674 0.23650117 -0.004613215 0.14800812 -1.8916098 -0.45634663
0.025527302 0.284286 -0.12810409 -0.08398557 -0.28978294 0.26171792 0.72676027 -0.15407176
0.18620187 0.258199 0.11173544 0.29119065 0.05402248 -0.13671325 0.8832359 0.30330956
-1.0185024 -0.012835134 -0.36048222 -0.0068950164 -0.048843715 -0.014486623 0.57548153 0.20342354
0.047440287 -0.08516361 0.09561036 -0.5762959 0.06921309 0.21519919 0.9829454 -0.09488018
-0.19683513 -0.1130161 -0.26856917 0.20789942 -0.08983183 -0.16316701 0.3116409 0.17376336
0.84485555 -0.0688054 0.32599393 -0.26098648 -0.1732979 -0.27198464 -0.05031051 0.010510102
0.65646374 0.27716842 -0.23068242 -0.03998224 -0.027051745 -0.04003601 1.1743864 -0.23856747
-0.28592086 0.17654619 -0.06418739 -0.039423477 -0.27248126 0.34125757 0.96041644 -0.022957826
-0.31931424 -0.09233987 -0.1582111 0.014629245 -0.0030268729 -0.15838714 -0.03010714 -0.11397216
0.27373052 0.061565097 0.18766326 0.10648967 -0.07226666 0.0061588045 -0.7553415 -0.13352628
-0.08814701 -0.50677705 -0.030506814 0.0032404198 -0.12403717 0.12905245 -0.13407816 -0.07234736
-0.39518818 -0.15827988 -0.1834493 0.092704296 -0.16753426 0.042904604 0.07382753 0.0030809902
0.7067292 -0.013376081 -0.17320667 0.09371289 0.0566063 0.42807898 -0.26745883 0.3515046
-0.11408073 -0.278426 0.008013964 0.22246096 0.05382687 -0.15976185 0.21066561 -0.16463895
-0.26774672 0.026252607 0.33277082 -0.33440664 0.046026036 -0.08624845 -0.88821167 0.13160113
0.41266346 0.23509933 -0.08251945 -0.09400235 -0.1468659 -0.2442514 -0.54267555 -0.11284964
0.66111225 -0.5387863 -0.00770589 0.07163961 -0.3450091 0.43851268 -0.095294654 0.33649483
-0.6499373 0.08804016 0.10698294 0.08556971 -0.81553954 0.25952324 0.6619834 -0.07832306
00000000: f2e0 b13e 35ac 19bd 398b a53e 71f6 5bbe
00000010: e9d4 a6be 6e43 303e 8174 09bf 6f57 bf3e
00000020: 8829 d83e f000 7cbd db66 363e 5d2d 723e
00000030: 742a 97bb 718f 173e 4520 f2bf 44a6 e9be
00000040: a21e d13c ef8d 913e b82d 03be a000 acbd
00000050: 6e5e 94be e4ff 853e f60c 3a3f fdc4 1dbe
00000060: b4ab 3e3e a932 843e 8dd5 e43d f116 953e
00000070: ad46 5d3d 8ffe 0bbe bf1b 623f 644b 9b3e
00000080: 495e 82bf 744a 52bc 2091 b8be 97ef e1bb
00000090: 5910 48bd 4d59 6dbc c252 133f 434e 503e
000000a0: bf50 423d 426a aebd 5dcf c33d 2188 13bf
000000b0: 98bf 8d3d 2d5d 5c3e 4fa2 7b3f 8a50 c2bd
000000c0: 268f 49be fc74 e7bd e681 89be 96e3 543e
000000d0: c0f9 b7bd 4115 27be 658f 9f3e 06ef 313e
000000e0: 7448 583f d8e9 8cbd ade8 a63e 05a0 85be
000000f0: 0175 31be 9241 8bbe 6512 4ebd 9032 2c3c
00000100: 020e 283f 05e9 8d3e 0338 6cbe 6bc4 23bd
00000110: 9f9b ddbc cdfc 23bd 4b52 963f 084b 74be
00000120: 3864 92be 86c8 343e ae74 83bd 837a 21bd
00000130: aa82 8bbe 50b9 ae3e dadd 753f 0d12 bcbc
00000140: 287d a3be b01c bdbd 1702 22be 80af 6f3c
00000150: 805e 46bb 3d30 22be 40a3 f6bc 3c6a e9bd
00000160: 6826 8c3e af2b 7c3d cc2a 403e 4217 da3d
00000170: 8b00 94bd cccf c93b 0f5e 41bf 1dbb 08be
00000180: 6b86 b4bd 24bc 01bf 6de9 f9bc 395d 543b
00000190: 3307 febd 5326 043e c94b 09be da2a 94bd
000001a0: 1b56 cabe 1f14 22be 22da 3bbe c0db bd3d
000001b0: 1a8e 2bbe bdbc 2f3d e332 973d 70ea 493b
000001c0: 34ec 343f 5a27 5bbc 175d 31be 8bec bf3d
000001d0: 02dc 673d 2b2d db3e 5df0 88be 69f8 b33e
000001e0: 28a3 e9bd da8d 8ebe 004d 033c cecc 633e
000001f0: 9079 5c3d 9c98 23be bab8 573e 1d97 28be
00000200: 1916 89be b50f d73c f060 aa3e 5937 abbe
00000210: cc85 3c3d 07a3 b0bd d761 63bf 72c2 063e
00000220: a048 d33e e1bd 703e f5ff a8bd 4e84 c0bd
00000230: 0464 16be 0a1d 7abe c9ec 0abf b61d e7bd
00000240: a73e 293f e6ed 09bf b181 fcbb cab7 923d
00000250: 08a5 b0be bc84 e03e d829 c3bd 0d49 ac3e
00000260: 4a62 26bf 664e b43d df19 db3d 2c3f af3d
00000270: 33c7 50bf 3be0 843e be77 293f d767 a0bd

f_connected1.bias f4 [20]
0.23054814 1.3399177 -0.6683343 -0.9687141 1.5180863 0.5303288 0.23295227 -0.7628523
-0.5627912 -0.9877705 -0.26286292 0.5575284 -0.14501934 0.08248863 -1.7106111 -0.06782338
0.96591604 0.37565067 -0.15717612 -0.76535445
00000000: d014 6c3e 6c82 ab3f f517 2bbf a6fd 77bf
00000010: a750 c23f a1c3 073f 0a8b 6e3e 4a4a 43bf
00000020: 1613 10bf 87de 7cbf f895 86be 2eba 0e3f
00000030: f37f 14be cdef a83d 4ef5 dabf fce6 8abd
00000040: 4646 773f 4955 c03e c7f2 20be 45ee 43bf

f_connected2.weight f4 [20, 20]
-0.10011356 -0.09238596 0.01127848 -0.15850219 -0.04175493 -0.12773508 0.07335958 0.094515175
-0.1459721 -0.09206654 -0.13468367 0.14324716 0.1034458 -0.11980212 0.018228441 0.12967777
-0.0394969 0.1251255 0.027722359 -0.056482404 -0.04445886 0.14155228 -0.21920484 0.14592774
0.12380489 -0.12972225 -0.20613706 0.14585395 0.11103548 0.19366327 0.13290578 -0.09759951
0.06412676 -0.17977564 -0.17285132 -0.10968377 -0.015519777 0.14273705 -0.25835955 0.030322803
0.1923516 -1.489667 0.082037196 -0.0657856 0.9970844 -1.4767019 -0.06215784 -0.09670631
-0.31386158 0.0636834 -0.04389946 -0.118492454 -0.49129814 0.1445938 0.30673623 0.13928375
-0.04829537 0.2861062 0.0014513226 -0.57403606 0.0075516547 -0.08033497 -0.18885915 -0.16596909
0.081042565 -0.19695847 0.22080126 0.039266407 -0.090889685 0.06267566 0.041743696 -0.18354547
-0.11833943 0.050803244 -0.1362489 -0.054877385 0.082811184 0.09617836 -0.071478754 0.036226127
-0.25215656 0.14005715 -0.0047801393 -0.13000877 0.10197248 0.09288387 0.0677968 0.11069441
-0.006195031 0.09747835 0.04165733 0.13139911 -0.101268835 0.0880546 -0.21366854 -0.2095582
-0.27097985 0.16100195 0.20242274 0.0136527745 -0.20933093 0.12076642 0.118010156 -0.16218665
0.22796227 0.25365627 -0.21265805 0.108671315 0.12348278 -0.09975169 0.0606561 -0.21585162
-0.08059436 0.17141056 -0.12030036 -0.15409665 -0.013767797 0.040973946 0.12755355 -0.057520833
0.2839779 0.70869553 -0.070800655 -0.0021471956 -0.16029026 -0.15588526 -0.034351036 -0.19658083
-0.2398202 -0.04847845 -0.08652714 -0.09507541 0.7061535 -0.15723228 0.3103705 -0.18270022
-0.7044552 0.08995744 0.4353313 -0.2823649 0.19455644 -0.0046018916 -0.15562297 0.1922882
0.044321407 0.23992296 0.005375311 -0.1377371 0.17576398 0.10832716 -0.0024067461 -0.24673696
0.2638892 0.009290709 -0.25920805 -0.2133893 0.008735179 0.029483607 -0.005230982 0.21867298
-0.08972697 0.3149021 -0.19258486 -0.049532395 -0.06890035 -0.2332134 -0.14938594 -0.09227238
0.01569755 -0.15569985 -0.064119846 -0.17874452 0.18542135 -0.09547106 0.35241958 0.054113626
-0.39499885 0.022791542 0.27516094 -0.25318483 -0.019275172 -0.35941574 0.17005388 -0.07436778
-0.056105502 0.18485466 0.20719412 0.12860018 -0.07416077 -0.03685513 0.19090927 -0.10945742
0.18781911 0.09479224 -0.22121884 -0.047259897 -0.12751342 -0.17830914 0.0537867 0.17434858
0.07690599 0.05850767 -0.18644056 0.19150473 -0.07840954 0.35794058 0.16934526 -0.067436986
-0.05376808 -0.2722142 0.011245072 0.07830789 0.17842986 -0.16184986 0.030133024 0.11079642
-0.27410835 -0.1038763 0.13549665 0.25858685 -0.17051286 -0.5117575 0.06292774 0.22495922
0.0904419 -0.16527735 -0.041418776 0.31742284 0.108976156 0.16102885 -0.1257202 -0.08208155
-0.16630322 -0.21134669 -0.01627709 -0.037821785 -0.19768058 -0.13664015 -0.044289082 0.1309809
0.06977814 0.122288465 -0.2489248 0.013092472 -0.069733396 0.04680754 -0.08754091 0.012583077
0.2030524 -0.18637979 0.0066565573 -0.1197617 -0.009901876 0.027283197 -0.029563472 -0.11224874
00000000: 5708 cdbd da34 bdbd 60c9 383c 664e 22be
00000010: 3807 2bbd fccc 02be 8c3d 963d 2c91 c13d
00000020: b679 15be 628d bcbd 84ea 09be 62af 123e
00000030: 64db d33d d05a f5bd d053 953c 40ca 043e
00000040: 80c7 21bd e620 003e 001a e33c 185a 67bd
00000050: 7e1a 36bd 15f3 103e 3c77 60be 156e 153e
00000060: 6b8d fd3d e9d5 04be 9815 53be bd5a 153e
00000070: 9266 e33d aa4f 463e 7418 083e 40e2 c7bd
00000080: e454 833d 1b17 38be f0ff 30be e2a1 e0bd
00000090: aa46 7ebc a929 123e b447 84be 8767 f83c
000000a0: d1f7 443e 69ad bebf 1e03 a83d 9aba 86bd
000000b0: ec40 7f3f 9104 bdbf 3899 7ebd f50d c6bd
000000c0: 77b2 a0be 716c 823d eccf 33bd 2cac f2bd
000000d0: 6e8b fbbe 6610 143e 880c 9d3e 66a0 0e3e
000000e0: 5ed1 45bd 837c 923e 4e3a be3a 07f4 12bf
000000f0: df73 f73b a986 a4bd 4b64 41be cdf3 29be
00000100: a5f9 a53d 7baf 49be ba19 623e d0d5 203d
00000110: 5f24 babd 195c 803d 70fb 2a3d 58f3 3bbe
00000120: f15b f2bd 1017 503d d584 0bbe 1cc7 60bd
00000130: e998 a93d 29f9 c43d 7463 92bd d961 143d
00000140: aa1a 81be 246b 0f3e b7a2 9cbb 0521 05be
00000150: f3d6 d03d e639 be3d 0cd9 8a3d c0b3 e23d
00000160: b0ff cabb bba2 c73d e0a0 2a3d 7d8d 063e
00000170: 0966 cfbd f855 b43d edcb 5abe 6d96 56be
00000180: dfbd 8abe b2dd 243e e847 4f3e e3af 5f3c
00000190: d95a 56be 6354 f73d 4faf f13d 4214 26be
000001a0: f16e 693e 3cdf 813e 08c3 59be 118f de3d
000001b0: 8ae4 fc3d 9d4a ccbd 8872 783d 3508 5dbe
000001c0: a80e a5bd 4086 2f3e 0960 f6bd 83cb 1dbe
000001d0: 5392 61bc 4cd4 273d 669d 023e f79a 6bbd
000001e0: 8d65 913e 126d 353f efff 90bd f7b7 0cbb
000001f0: 2123 24be 63a0 1fbe acb3 0cbd 7c4c 49be
00000200: 6d93 75be 5791 46bd 2435 b1bd e6b6 c2bd
00000210: 7ac6 343f 8001 21be e2e8 9e3e c415 3bbe
00000220: 2d57 34bf 9b3b b83d bfe3 de3e 2292 90be
00000230: ce39 473e 77cb 96bb a15b 1fbe 33e7 443e
00000240: 5d8a 353d 5dae 753e 6023 b03b f40a 0dbe
00000250: 79fb 333e a1da dd3d 80ba 1dbb 9da8 7cbe
00000260: 7c1c 873e 0f38 183c ebb6 84be ba82 5abe
00000270: ff1d 0f3c 9b87 f13c a868 abbb cfeb 5f3e
00000280: c6c2 b7bd d93a a13e f734 45be 7be2 4abd
00000290: a01b 8dbd 7ecf 6ebe a1f8 18be 4df9 bcbd
000002a0: 2698 803c c86f 1fbe 4451 83bd ce08 37be
000002b0: 18df 3d3e 5586 c3bd 5770 b43e 40a6 5d3d
000002c0: 4a3d cabe 54b5 ba3c e5e1 8c3e 71a1 81be
000002d0: f7e6 9dbc 5705 b8be 9b22 2e3e 224e 98bd
000002e0: e2ce 65bd 8a4a 3d3e b22a 543e c4af 033e
000002f0: 9ae1 97bd 68f5 16bd b87d 433e 362b e0bd
00000300: a753 403e 6f22 c23d 3187 62be 9893 41bd
00000310: e192 02be ac96 36be 714f 5c3d 6f88 323e
00000320: e380 9d3d bda5 6f3d 46ea 3ebe d119 443e
00000330: 2e95 a0bd fd43 b73e d868 2d3e 671c 8abd
00000340: eb3b 5cbd a95f 8bbe 403d 383c e35f a03d
00000350: 51b6 363e f8bb 25be 88d9 f63c 3ce9 e23d
00000360: ee57 8cbe 19bd d4bd a2bf 0a3e 7f65 843e
00000370: ec9a 2ebe 8a02 03bf 42e0 803d b65b 663e
00000380: 9a39 b93d 773e 29be bca6 29bd 3f85 a23e
00000390: e42e df3d bfe4 243e ccbc 00be 5f1a a8bd
000003a0: 644b 2abe 446b 58be 8857 85bc 04eb 1abd
000003b0: c76c 4abe 65eb 0bbe 7868 35bd db1f 063e
000003c0: d7e7 8e3d 6072 fa3d 25e6 7ebe cf81 563c
000003d0: 62d0 8ebd 43b9 3f3d a648 b3bd 4029 4e3c
000003e0: f8ec 4f3e 58da 3ebe 401f da3b 9f45 f5bd
000003f0: 7a3b 22bc 0381 df3c 182f f2bc abe2 e5bd

f_connected2.bias f4 [20]
0.11892858 -0.56054133 1.455823 -0.15159471 -0.19434255 -0.1456651 0.058952674 1.0694222
0.019191006 0.11335193 1.815973 -1.2530663 -0.26838246 -0.09086853 -1.2035145 0.13321353
-1.4911127 -0.05470708 -0.3142707 0.14512935
00000000: d490 f33d a37f 0fbf 6858 ba3f a53b 1bbe
00000010: bc01 47be 3b29 15be 5c78 713d d4e2 883f
00000020: 7536 9d3c 0f25 e83d ce71 e83f 7a64 a0bf
00000030: 6d69 89be 4819 babd c30c 9abf 2169 083e
00000040: c8dc bebf 8814 60bd 17e8 a0be ca9c 143e

out.weight f4 [2, 20]
-0.07059081 0.031090619 0.70249903 0.16789746 -0.11610716 0.15298577 0.23923063 0.102648
-0.25372767 -0.12158556 0.059949905 -0.23751535 0.0066209272 -0.09414857 -0.16737701 0.0011653258
-0.45063466 0.12534598 -0.8583803 0.073126286 0.08911511 0.08755882 -0.45409277 0.029248895
0.093691446 0.14409842 -0.09465804 -0.13928401 0.16036458 -0.06630322 -0.31738508 0.15567501
0.13831672 -0.27090815 0.20525189 0.062197067 0.4372503 0.042367518 0.9795085 0.1953468
00000000: ea91 90bd c1b1 fe3c fad6 333f 50ed 2b3e
00000010: 97c9 edbd 4da8 1c3e e0f8 743e 1d39 d23d
00000020: 98e8 81be da01 f9bd 088e 753d 3937 73be
00000030: 5df4 d83b f7d0 c0bd e164 2bbe d8bd 983a
00000040: 96b9 e6be b25a 003e d0be 5bbf 3cc3 953d
00000050: fc81 b63d 0a52 b33d d97e e8be 619b ef3c
00000060: 4de1 bf3d 898e 133e 13dc c1bd 78a0 0ebe
00000070: 9d36 243e fcc9 87bd 4c80 a2be 4569 1f3e
00000080: e6a2 0d3e 79b4 8abe 8d2d 523e 5ac2 7e3d
00000090: 45df df3e 9089 2d3d 12c1 7a3f fe08 483e

out.bias f4 [2]
1.0432125 -1.3355768
00000000: fd87 853f 2ef4 aabf
