basics/HouseWeights.pt (torch, 39923 bytes, 21 tensors)

embeds.0.weight f4 [15, 8]
00000000: 2b0c 833d bd97 623d 402d 153c cfe2 22bc
00000010: 17e2 b73c 421d bebb f43d c4bc 0ba6 1abd
00000020: efba e43d 6451 593d dc8e b9bc 2d84 9abe
00000030: c24c 503d 6a97 bab9 5e37 78bd 9df1 d43d
00000040: 470e 5fbf 82dc 8cbf f931 b73e c668 003f
00000050: 0981 403e b19c d5bf 2873 213f 9d9f 1ebf
00000060: 33f4 453e 9197 ecbf 52dc 08bf f589 123e
00000070: 95ad 4bbd d4b3 31bf fd9f 1140 6859 b1bf
00000080: 911c 083e 3e8b 233f e32d a2be b03a 9bbe
00000090: 07c1 36bd f186 17c0 922d 4e3f 4c04 52bf
000000a0: 89e3 cb3d d1bf b13d d9fd 06bc 8069 47bd
000000b0: 0113 ff3c 2109 6f3d 0327 33bc a308 24bd
000000c0: cef9 ebbd 72c9 42bc 7f18 d43f 9e95 de3f
000000d0: 73c0 52bd f039 85bd e59d 033e bbfb cbbd
000000e0: 91e4 03bf f461 b2be ce5b 35bd 40a5 65be
000000f0: 00a1 bebe 48c9 b03d 3834 7fbe 11f9 ba3e
00000100: df9d 15be e7ab 903e 9561 d33d 71aa fe3d
00000110: 642f 1ebe 0052 fe3c 3452 88bd b063 18be
00000120: e92b 0abe 371b 223f 7071 453e 86cd 953e
00000130: 391a a0be e0c2 a03d afe5 dd3e f1bd 48bf
00000140: dde0 9c3f ec59 e53f 0a1d 33c0 584d c6bf
00000150: ef5c ce3e 1510 903e eb1b 6d40 8a72 81c0
00000160: 044e 0dbf 7b7f 7bbe eb1e 323d bab1 1f3e
00000170: 8481 2dbf 902c 52be d824 2bbe 56cf 793e
00000180: d0c0 ff3d 34da 733f f377 973c d173 77bd
00000190: 887a 22bd 2fa6 22bf 53c8 0b3f 213f 36bf
000001a0: 4a91 be3f 9ed5 a83e f48f 59be 5e92 9ebf
000001b0: 22dd 2d3e 6081 8cbd b383 ecbd 4b66 ce3e
000001c0: 1b94 c83e 7e47 2540 3f5c 6abf 30bc eabe
000001d0: 50b5 ca3e 0359 a4bf 330e 903f 2d06 bbbf
0.06398805 0.05532049 0.009105027 -0.009941771 0.022446675 -0.0058018276 -0.023955323 -0.037756007
0.11168467 0.053056136 -0.022651128 -0.30178967 0.050854452 -0.00035589497 -0.060599677 0.103976466
-0.8713116 -1.1004794 0.35780314 0.5015987 0.18799223 -1.6688443 0.6306634 -0.619623
0.19331436 -1.8483754 -0.5346118 0.14310439 -0.049726088 -0.6941502 2.27539 -1.385541
0.13292147 0.6388434 -0.31675634 -0.30318213 -0.04461768 -2.3676112 0.80538285 -0.82037807
0.09955508 0.08679164 -0.008239233 -0.048684597 0.031136991 0.058358315 -0.010934594 -0.0400473
-0.11522256 -0.011888849 1.6569976 1.738941 -0.051453065 -0.06505191 0.128532 -0.09960123
-0.5152064 -0.34840357 -0.044277005 -0.22426319 -0.37232208 0.08632141 -0.24922264 0.36518148
-0.14611004 0.2825615 0.10321347 0.12434853 -0.15447766 0.03104496 -0.06656304 -0.14881778
-0.13493313 0.63322777 0.19281554 0.29258364 -0.31270006 0.078496695 0.43339297 -0.7841483
1.2256123 1.7918067 -2.7986474 -1.5492353 0.40305278 0.2813727 3.704829 -4.045232
-0.5519717 -0.24560349 0.043486517 0.15595141 -0.6777575 -0.20524812 -0.16713274 0.24395499
0.12487948 0.95254827 0.018489813 -0.060413186 -0.039667636 -0.63534826 0.54602545 -0.7119008
1.4888089 0.32975477 -0.2124632 -1.2388418 0.16978887 -0.06860614 -0.11548557 0.40312418
0.39175496 2.5824885 -0.91547006 -0.458467 0.39591455 -1.2839664 1.1254333 -1.461126

embeds.1.weight f4 [5, 3]
00000000: afbf a73f 5db9 1740 3a8d 723f b7af 80bf
00000010: d763 88be 092e f23d b471 ba3e e947 88bd
00000020: e2ce 563f a30a 68bc 92f3 0d3c 23ac 4b3c
00000030: 1a58 9b3d 9223 f53e d479 6abf
1.3105372 2.3706887 0.94746745 -1.0053624 -0.26638672 0.11825187 0.36414874 -0.06654341
0.8390943 -0.014162692 0.008664029 0.012431177 0.075851634 0.478787 -0.91592145

embeds.2.weight f4 [2, 1]
00000000: 9e42 0740 6dbe f53b
2.113441 0.007499507

embeds.3.weight f4 [4, 2]
00000000: 7fd8 743e 6c73 33be 940e 1b3e 5cf2 73be
00000010: 1cdf 8c3e 5ff2 0640 8c93 edbe 2054 cd3e
0.23910712 -0.17524499 0.1514228 -0.23822922 0.2751397 2.1085432 -0.46401632 0.40103245

bn_cont.weight f4 [5]
00000000: f3c9 ec3e 4783 163f 838e 963f 07f8 853f
00000010: 3dc5 f73f
0.46247825 0.58794063 1.1762241 1.0466317 1.9357067

bn_cont.bias f4 [5]
00000000: 0e94 093f 9d25 d7be ffcc e6bf 286f 56bf
00000010: c967 0140
0.5374154 -0.42020884 -1.803131 -0.8376336 2.0219595

bn_cont.running_mean f4 [5]
00000000: 6629 8c42 8de7 1b46 c9c2 9044 25cb ab43
00000010: 5f82 5942
70.08086 9977.888 1158.087 343.58707 54.377316

bn_cont.running_var f4 [5]
00000000: 14f6 1044 0552 774c e828 0f48 9371 3848
00000010: 9a63 7a44
579.845 6.4833556e+07 146595.62 188870.3 1001.5563

layers.0.weight f4 [100, 19]
00000000: 6377 0cbd 6a7b 28bf 9a46 1abe e481 49be
00000010: c3b7 c43e b197 10bd e061 85bf 8c17 943f
00000020: 3793 5d3f 6e61 4b3e 1e91 993e 4125 3a3f
00000030: 0f56 ec3e 7719 b1bf 6c2a c33e e2ee 5b3f
00000040: 17e2 2dc0 4477 dabf 40d2 5a3e bad9 323f
00000050: 54c3 1c3e 2963 71be 9621 08bf e85a 273f
00000060: 5687 0e3e acaa 3cbe 7232 e5be cb89 6c3d
00000070: 13cb 533f 22d8 03bf 61f5 123e b2f8 f0be
00000080: 1f44 b93e c070 ee3e 9476 5dc0 3f60 a1bf
00000090: e7a5 afbf cdf2 383f 62a5 3fbd ba32 1abd
000000a0: 834f 5abe 161f 6ebe ae44 233f 038f 2ebe
000000b0: c58b 53be 5698 cd3c 4ee5 023f e5b4 d3be
000000c0: a94a 273f b471 873f 7860 cdbd 8070 1a3e
000000d0: 5463 023f 248e 5ac0 baff b3bf 729c 9ebf
000000e0: e353 5c3f 1f1c e2be 61bc 0b3e 6c73 6cbe
000000f0: 4aff 9bbe 3478 9ebe 3d66 f83e a081 86bd
00000100: e3d5 98be 32d5 aa3f f43b 2e3f 0de9 9f3e
00000110: 0cf0 923e 32d1 ad3d b07d 513f b690 49c0
00000120: 8062 e93e 1d67 0ac0 e975 e3bf 2847 063f
00000130: a4c8 bd3f d53a c13e 921b 36bf 767f 30bf
00000140: c2cf c33e 4158 c03d 5daf a33e b0b8 8abf
00000150: b637 833e d7f5 3dbd 0364 30bf f763 2b3e
00000160: 8c3a 98bd 1eb4 df3d 0a71 4d3f 5ae6 36c0
00000170: 7233 c4bf de09 80bf d248 2a3f 56bf 7fbe
00000180: c930 e8bd a3ef 173d 1b14 7e3d 801e a3be
00000190: ea58 f73d a843 07bf 542e f13e b33f 753f
000001a0: 5b34 2fbe 2c7f 81bc 73f9 d43e 0543 d4bc
000001b0: 2ac7 783c 2a64 153f b1cd 64c0 4c05 943e
000001c0: 4bb5 10bf 9bd5 fd3e a7c1 65be b45d 1bbf
000001d0: 9e83 48be 2ab4 bdbd 6782 28bd d621 5ebf
000001e0: b37a 6ebe 46b0 b73e e21a 8fbd ce83 efbe
000001f0: 9c0e 1540 6c36 7ebd 63e2 373e 88a2 1abe
00000200: e0f9 da3f 8a7a 90bd 0faf 6fbf 6c66 97bf
00000210: 9ba4 a8be 8c7d d6bd 1e97 f0be ba32 0840
00000220: f73c e7be c7ea ec3d aa93 4a3e 53b6 07bf
00000230: 14d3 903e 0171 5a3d 2fb7 cd3d 1d47 b53e
00000240: c5e2 c63e 7cc7 a2be 812f a7bd 0598 07bf
00000250: 28d2 fa3e 5bdb 943f 59d7 363f 4969 b1bf
00000260: 3891 fa3e c347 523e 91da 42be 2e59 84be
00000270: a30b d43e 2ede 2abe 3c13 7b3e 4a6b ce3d
00000280: e5c1 393e be46 2c3f 80b4 b8bb e135 143f
00000290: a4a3 10bf 0faf 4d3f d307 0e3f b9d5 6bbe
000002a0: a8a6 b9bf c62c d1bf b004 fb3e 5def 553f
000002b0: d442 8bbe ffb0 8b3e e18d 15bf 9b7c 9ebf
000002c0: 61d0 f43e 6513 c63c d25f 603f a12a c13f
000002d0: 5760 c53f f5b2 1bbf e752 f73e 6363 523f
000002e0: 7b51 14bf da3b b63f f586 943d 5e4d a93f
000002f0: 494c 223f 3c2e 25c0 ca52 2dbf 5a1b 65bf
00000300: 4278 ed3d 247a 653d c568 17bf 3642 ccbe
00000310: 96f6 e6be 8ad1 523f a4d0 a53e d986 373f
00000320: 83a7 76bf e516 15bf 67d4 863e e1eb 0a3e
00000330: 6bc7 8bbf e329 82be 6154 1cbe fe35 263e
00000340: 0a86 7ebf 7692 233e 219a d4be b66b 953c
00000350: 86b7 c73f 033e f23e 7e4a 46bf f0fe 7dbe
00000360: 3d37 c83e edba d13e 6380 a5bf 23e5 c13f
00000370: 9efd 1a3e 2697 e0bd bf32 cb3d 5558 04bf
00000380: b115 b53e b847 9f3f 9d09 0d3f 2b56 a2bf
00000390: 490a 2c3f 73be bebe d200 ec3e 85f2 cd3e
000003a0: 9c0b 0440 a3de 5c40 88bf b2be 2e32 143e
000003b0: 6181 083f fb00 ac3e 9f41 2c40 1b0b 3bbe
000003c0: 59b3 29be 3349 ce3d 1678 27c0 acff 08bf
000003d0: 7b22 6b3f 39bf e4bf 85cf 103f 214f 253f
000003e0: e8e3 ce3e ea95 c6be bcff fabe 7b3a 8a3f
000003f0: 6f73 2ebe d35e bf3e 9576 31bf 6074 2b3f
-0.034293544 -0.65813315 -0.15065995 -0.19678456 0.3842145 -0.035300914 -1.0420494 1.1569686
0.8655276 0.19861385 0.29993528 0.72713095 0.46159407 -1.3835896 0.38118303 0.8591138
-2.7169244 -1.7067647 0.21369267 0.69863474 0.15308887 -0.23572983 -0.5317625 0.65373087
0.13918814 -0.18424481 -0.4476505 0.057748597 0.8273174 -0.5150167 0.14351417 -0.4706474
0.36184785 0.46570396 -3.4603624 -1.2607497 -1.3722504 0.72245485 -0.04678858 -0.037646033
-0.21319394 -0.23254046 0.6377667 -0.17046742 -0.20658787 0.025097053 0.5113114 -0.4134895
0.653483 1.0581574 -0.100281656 0.15081978 0.5093281 -3.4149256 -1.4062417 -1.2391493
0.860655 -0.4416208 0.1364608 -0.23090905 -0.30468208 -0.30951083 0.48515502 -0.06567693
-0.29850683 1.3346312 0.6806023 0.3123249 0.28698766 0.084871665 0.8183241 -3.1494575
0.45582962 -2.1625435 -1.7770358 0.52452326 1.4826856 0.37740198 -0.7113582 -0.6894449
0.38244444 0.09391833 0.3196973 -1.0837612 0.25628442 -0.04637703 -0.68902606 0.16737352
-0.07433042 0.109230265 0.8025061 -2.8578095 -1.53282 -1.0003011 0.66517365 -0.24975333
-0.1133743 0.03709377 0.062030893 -0.31859207 0.12077506 -0.5283761 0.47105658 0.9580032
-0.17109816 -0.01580771 0.41596565 -0.025910864 0.015184203 0.58355963 -3.5750544 0.2891029
-0.5652663 0.4957703 -0.22437154 -0.60689855 -0.19581458 -0.09262879 -0.041139986 -0.8677038
-0.23288994 0.35876673 -0.06987549 -0.46780246 2.3290167 -0.06206362 0.17957453 -0.15101063
1.7107506 -0.070546225 -0.93626493 -1.1828132 -0.32938084 -0.10473165 -0.46990293 2.128096
-0.451637 0.11568218 0.19782892 -0.5301258 0.2828604 0.053330425 0.10044705 0.35405818
0.38844886 -0.3179282 -0.081633575 -0.5296634 0.48988461 1.1629442 0.71422344 -1.3860255
0.48938918 0.20535187 -0.19028689 -0.2584929 0.41415128 -0.16686317 0.24519056 0.100790575
0.18140371 0.67295444 -0.0056367517 0.5789471 -0.56499696 0.80345243 0.5548069 -0.23030747
-1.4503984 -1.6341789 0.49027014 0.83568364 -0.27199423 0.27283475 -0.58419615 -1.2381777
0.4781523 0.02417917 0.8764621 1.5091134 1.5420026 -0.6081994 0.48305437 0.821829
-0.5793683 1.4237015 0.072523035 1.3226736 0.6339765 -2.580947 -0.6770445 -0.8949486
0.11595203 0.056024686 -0.5914424 -0.39894265 -0.45110005 0.8235098 0.32385743 0.71690136
-0.9634935 -0.5823806 0.26333925 0.13566543 -1.0920233 -0.25422582 -0.15266563 0.16231534
-0.9942328 0.15973839 -0.4152384 0.018239837 1.5602882 0.47312936 -0.77457416 -0.24804282
0.39104643 0.40962926 -1.2929806 1.5148052 0.1513581 -0.10966329 0.099217884 -0.51697284
0.35368112 1.2443762 0.55092794 -1.2682546 0.67203194 -0.37254676 0.46094376 0.4022409
2.0632086 3.4510887 -0.34911752 0.14472267 0.53322417 0.33594498 2.6915052 -0.18265955
-0.16572322 0.100725554 -2.6167045 -0.53515124 0.9184949 -1.7870857 0.5656665 0.64573866
0.40408254 -0.3878625 -0.49023235 1.0799097 -0.17036222 0.37377033 -0.69321567 0.6697445

layers.0.bias f4 [100]
00000000: ee42 e3bf 483f b440 9ee8 a540 3c19 68be
00000010: d072 8840 9318 6ac0 14b2 73c0 dbe2 2e40
00000020: ddaa dd40 672c 2b3f bc31 b9bf bccd 3e40
00000030: d2a0 d6bf 91b4 bb40 d075 9bbf 0b76 9abf
00000040: fc52 78be e740 5dc0 0d7c a6be 5539 c0bf
00000050: f6a1 c5bf 97d1 8840 f16d 68c0 8400 4b3e
00000060: 153a ba40 c746 e2bf c9ba ddbf aeea 47bf
00000070: d92f 34c0 b761 abbf 1318 cb40 7e65 953e
00000080: 6f14 ccbf 13dd 9c40 4970 8f3f 0673 4bbe
00000090: 1f08 1dc0 fc13 d040 6111 11c0 5f8d aa40
000000a0: 630c 4c3f a9dc bebf c702 23c0 a8c1 9b40
000000b0: 2ae0 03c0 2d8b bf40 1356 b340 942e b340
000000c0: ba73 9e40 da5c 9740 0ed9 43bf 1a9f c0bf
000000d0: 11f0 59c0 9545 a540 d003 a83f 1c2e 8dbf
000000e0: a79a 2dc0 57a2 f0bf 4233 9140 13a1 603f
000000f0: 4a0e ad40 9a37 9dbf adc6 d7bf c622 733d
00000100: 1708 2a40 0b56 cdbf aba6 d6bf 448f 5b3f
00000110: f91b 3140 af20 b540 7f20 4b40 681f a040
00000120: 5597 88bf 3f71 9940 efd7 cabf ba10 5140
00000130: dfe0 f2bf 059c a9c0 c391 d93e e59c 5540
00000140: 4759 e3bf 9b2c 83c0 4b56 8bbf a9b1 2f40
00000150: d628 9a40 50d4 86c0 f764 2340 c73a a740
00000160: 6cd4 b640 1fa5 b040 ef49 06c0 39bf d540
00000170: bcd4 3ac0 6d04 2140 d8a9 1bbf e6d9 d540
00000180: a8b7 433f dc04 a73f 623b e5bf d02c c040
-1.77548 5.632725 5.1846457 -0.22665876 4.264015 -3.65775 -3.807744 2.7325962
6.9271073 0.6686463 -1.4468303 2.981307 -1.6767828 5.865792 -1.2145329 -1.2067274
-0.24250406 -3.4570863 -0.32516518 -1.5017496 -1.5440052 4.2755847 -3.6317103 0.19824415
5.81959 -1.767785 -1.7322627 -0.7809247 -2.8154204 -1.3389195 6.3466887 0.29178995
-1.5943736 4.9019866 1.1206142 -0.19868097 -2.4536207 6.5024395 -2.2666857 5.329757
0.797064 -1.491109 -2.5470445 4.8673897 -2.060557 5.985739 5.604257 5.599436
4.951627 4.7300844 -0.76503074 -1.5048554 -3.4052775 5.164744 1.3126163 -1.1029696
-2.7125642 -1.8799542 4.537507 0.8774578 5.4079943 -1.2282593 -1.6857506 0.059359334
2.6567438 -1.6041883 -1.6769613 0.8576548 2.7673323 5.6602397 3.1738584 5.003834
-1.0671183 4.795074 -1.5847148 3.266646 -1.8974875 -5.3002954 0.4249402 3.337701
-1.776162 -4.099195 -1.088571 2.7452185 4.817485 -4.213417 2.5530374 5.225925
5.7134304 5.5201564 -2.0982625 6.6795926 -2.9192343 2.5158951 -0.60806036 6.682849
0.7645211 1.3048358 -1.7908747 6.0054703

layers.2.weight f4 [100]
00000000: 2be7 9b3e 4a76 423e c405 603e 0914 993e
00000010: 0997 7e3e 761f df3e 3e7e 123f 5105 8b3e
00000020: a8a1 1a3e 2adf c93e 1299 d53e 06c1 9b3e
00000030: acc3 e13e 17b1 523e 6051 a7be 0d6c b0be
00000040: ff8e 0abf e156 eeba d905 8c3e 83e0 6d3f
00000050: 49ea b53f 0299 a23e d636 aa3e 6dcc 433e
00000060: 1af2 8c3e edb2 3e3f bacb 55bf 570e 9f3e
00000070: 235c bcbf aa27 103f 3984 6c3e 537c 5dbe
00000080: 8a32 f23c 11b7 523e ad45 9a3e 7244 453e
00000090: dd45 bf3e 489b 8cbe 1a9b e53f 0278 453e
000000a0: aaf2 903e 5e16 823e 56ee 993d c093 893e
000000b0: 4c58 8abf d2aa 733e 8139 7b3e 3fa1 913e
000000c0: 61f9 7d3e bd9b 863e 09d6 dc3e 7a6e 6f3f
000000d0: e84d 973e 39e1 2b3e 1fa6 a73e 2d6d 8ebe
000000e0: d33a bf3e 6367 ce3d 89cf 783e f5d0 a03e
000000f0: 027c 483e 0066 0f3f 6f85 273e 24d7 223f
00000100: 1f7d b13e 2b1a 183d 46c8 dc3f 1b89 f43e
00000110: 12f2 883e d6d1 6c3e eb8b 9a3e 79ae 883e
00000120: ea5e 7d3f ab2f 333e 5303 223f 6b5a 893e
00000130: 2c40 633e 330b 823e ef91 c93e 8bfb 973e
00000140: ca67 8f3f b253 463f 0681 183f 20ab 893e
00000150: b8e8 6d3e 2f7a e03e 8236 8e3e b9cb 443e
00000160: 440e 2bbe b990 333e 6148 2fbf 3f85 803e
00000170: 4d61 c3bf fd96 973e 7f61 823e 0af8 783e
00000180: e6d5 823e 2cac 853e 07ab 02bf 5a06 653e
0.30449805 0.18990436 0.218772 0.29898098 0.24862303 0.4357869 0.5722388 0.27152494
0.1510073 0.39428073 0.41718346 0.30420703 0.44094598 0.20575367 -0.32679272 -0.34457436
-0.54124445 -0.0018183851 0.2734821 0.929207 1.4212123 0.3175736 0.33244962 0.19120951
0.2752846 0.7449177 -0.8351399 0.31065628 -1.4715618 0.5631052 0.23097314 -0.21629457
0.029565115 0.20577647 0.30131283 0.19264391 0.3735799 -0.2746222 1.7937958 0.1928406
0.28310138 0.2540769 0.07516162 0.26870537 -1.0808196 0.23795632 0.24533655 0.28443334
0.24802162 0.26290694 0.43132046 0.9352795 0.29551625 0.16785134 0.32743928 -0.2781767
0.37349567 0.10078313 0.24297918 0.31409422 0.19578555 0.56015015 0.16359495 0.6360953
0.34665772 0.03713433 1.7248619 0.47760853 0.26747185 0.23126921 0.30184874 0.26695612
0.9897295 0.17498653 0.6328632 0.26826796 0.22192448 0.2539917 0.3936915 0.296841
1.1203549 0.7747146 0.59571874 0.2688837 0.23233306 0.4384322 0.2777596 0.19218339
-0.1670466 0.17535676 -0.68469816 0.2510166 -1.5264069 0.29607382 0.2546501 0.2431337
0.25553817 0.2610792 -0.51042217 0.22365704

layers.2.bias f4 [100]
00000000: 2bee 133e 5902 123e 17a1 a93d 76f6 15be
00000010: 79b3 d63d 0909 b23d 9636 4c3d e1f4 c63b
00000020: fd13 f13d 2499 233d 64d1 2abd 9eb8 e83c
00000030: 611e a73d 3ca5 7a3e 4395 5fbe 35ae 84be
00000040: c37d 5bbd f719 aa3d 14a7 db3d fe1c b5bd
00000050: dd35 f33c f616 0a3d 40a9 8a3d 2134 85bc
00000060: 39ab 143e 4e59 cbbd cc55 453e 8e14 8cbc
00000070: 16d2 8e3d 9dfb 0e3e 5c85 a93d 5e53 423c
00000080: e9fb c73d c45b 0c3e a11f 4e3d 6eef 9fba
00000090: 9b76 f73d 2c2f 3abe 7eaf dfbb 2cb6 8a3d
000000a0: 62ec b53d 9132 4b3e dcb4 90bd e19f eb3d
000000b0: 4e99 673d 212c f23d 29a9 e83d 1bdd 103e
000000c0: 5453 ac3d 634e 443e ddb3 243d 7d2e 6d3d
000000d0: 99d2 0cbb 9039 773d 0f60 ffbc 45bb 0ebe
000000e0: 6319 0a3e 555d 723d acd4 033e 46c9 593c
000000f0: 7a12 943d bd39 673d 78ba e1bc e706 6f3d
00000100: 9766 c73d b3d9 f5bb f50c 813d e834 ee3d
00000110: f252 d93c b2c5 aa3d 0a5a 28be 2192 f03d
00000120: 63dc 77bd cc49 393e fb20 96bd c34e 75bc
00000130: 75d2 063e 5847 b43c 141d cc3c a173 0bbc
00000140: cc29 91bd 5daa 403d a2ac 893e 5566 023c
00000150: 8d63 2d3e c67d 5c3c 9aed 553d 31bc a4bc
00000160: 4e42 f8bd 681a 1f3e 7487 2bbc 93cb b53d
00000170: 681b cdbc 01c4 e83c dc8e a03d e8fd 123e
00000180: b2c3 013e 19c1 06bd 2dcd efbc 0be5 403e
0.14446323 0.14258708 0.082826786 -0.14644799 0.104834504 0.086931296 0.049856745 0.0060716723
0.117713906 0.03994097 -0.041703597 0.028408345 0.08160091 0.24477094 -0.21834283 -0.2591416
-0.053586733 0.08305734 0.10725227 -0.088434204 0.02968877 0.033713304 0.06770563 -0.016260209
0.14518441 -0.09929143 0.1927101 -0.017099645 0.069736645 0.1396317 0.082773894 0.011860697
0.09764845 0.13706881 0.050323132 -0.0012202093 0.12083169 -0.18182057 -0.00682634 0.06773028
0.08882977 0.19843508 -0.07065746 0.11505104 0.056542687 0.11824823 0.1136039 0.14146845
0.08414331 0.19170527 0.040210593 0.057905663 -0.002148783 0.06035763 -0.031173734 -0.13938625
0.13486247 0.05917104 0.12874097 0.013292616 0.072300866 0.056451548 -0.027554736 0.058356192
0.09736364 -0.0075027584 0.063012995 0.11631185 0.02652881 0.08338489 -0.16440597 0.11746622
-0.06051291 0.18094558 -0.07330509 -0.014972392 0.1316622 0.022006676 0.02491621 -0.008511455
-0.0708805 0.04703747 0.2688952 0.007958968 0.16932507 0.013457721 0.052228548 -0.020109268
-0.121220216 0.15537417 -0.010469306 0.08876719 -0.025037482 0.028413774 0.07839748 0.1435467
0.12672308 -0.032898996 -0.02927264 0.18837373

layers.2.running_mean f4 [100]
00000000: 79bd 7b40 28a2 4c41 08c6 4341 4bee 9b40
00000010: e687 3c41 80af 2f3e c031 473e cbe7 7d3e
00000020: 2eff 4d41 e9de 423e 8a6f 893c f0cb a83e
00000030: 72da 443e 63f6 4641 1e2e ba40 69a2 a440
00000040: 192a ae3d 7ca5 253c 3e95 cd40 0400 0000
00000050: e65a 133c 371f 613f fff1 693e e4b7 043f
00000060: 8dfa 4141 0400 0000 0400 0000 700a 8a3d
00000070: 0400 0000 7f87 ce3e 449a 4b41 7990 c540
00000080: 0400 0000 4eb8 3c41 1d21 943e bba6 d240
00000090: 0400 0000 f027 5d41 870f 8f3b 31f4 3b41
000000a0: 06a2 163e 4667 be40 0400 0000 bf00 3f41
000000b0: 83e1 1007 61e7 5041 5eba 4741 f8bf 3c41
000000c0: c610 3d41 4331 4441 e09f 923c fbcc c23c
000000d0: dee7 913f 2c12 4741 ceac f63d ff24 b540
000000e0: 33e8 3d40 b76b 8134 6078 3e41 c1ad c63e
000000f0: 67b9 4e41 3440 f43b 0400 0000 7ead c33d
00000100: c440 893e 0400 0000 25ec 073c faf1 2c3e
00000110: cedd 853e ee2d 4e41 d276 4f3f 4fec 4a41
00000120: 169a 0839 a4fb 4a41 0400 0000 893f 043f
00000130: 23c2 3340 62f4 fc3c 4d69 1b3e 6eb9 133f
00000140: 0400 0000 5bef 323c f92e 0640 e8b8 713e
00000150: 5780 3e41 0040 f53b 71b8 943e 3ccd 4341
00000160: 0df5 5441 4aa1 3e41 c679 fc3c 6908 5541
00000170: 364c ac3a 212b 893e cd61 a940 a20c 5141
00000180: 3cec 0641 e70c 113e a840 2e3d 4c88 4241
3.9334395 12.789589 12.235847 4.8728385 11.783178 0.17156792 0.19452572 0.24795453
12.8748 0.19030346 0.016776819 0.32968092 0.19223955 12.435153 5.8181295 5.1448255
0.08504123 0.010110255 6.424468 6e-45 0.00899384 0.87938255 0.2284622 0.51843095
12.12367 6e-45 6e-45 0.06740272 6e-45 0.4033775 12.7251625 6.173886
6e-45 11.794996 0.28931513 6.582853 6e-45 13.82225 0.0043658647 11.747117
0.14710245 5.9501066 6e-45 11.937682 1.0899628e-34 13.056489 12.483 11.796867
11.816595 12.262027 0.0178985 0.023779383 1.1398885 12.4419365 0.12044679 5.660766
2.9672973 2.4106495e-07 11.904388 0.3880444 12.920264 0.0074539427 6e-45 0.095545754
0.26807225 6e-45 0.008296047 0.16889182 0.26145786 12.886213 0.8104068 12.682693
0.00013027372 12.686436 6e-45 0.51659447 2.8087242 0.03087825 0.15176888 0.5770482
6e-45 0.010921325 2.096617 0.23605692 11.906333 0.007484436 0.29046968 12.237606
13.309827 11.914377 0.030819785 13.314553 0.0013145271 0.26790717 5.2931886 13.065584
8.432674 0.14165078 0.04254213 12.158276

layers.2.running_var f4 [100]
00000000: dc08 fa40 871d 4b41 cf65 3041 aaf0 3c41
00000010: 3e9c 9141 f298 2e3e d83f 983e bf0b 193f
00000020: e865 0641 4380 2f3f 77dd b73c abd9 3e3f
00000030: e58d c63e 41da 4941 c5ef 4e41 1e2e 4241
00000040: b514 db3e 8738 c73c cd4c 4941 0400 0000
00000050: 5dd4 3b3d cabb b63f c2cb 3b3f ce8b 7f3f
00000060: 8b44 5741 0400 0000 0400 0000 445f 923d
00000070: 0400 0000 8b48 8b3f 6c90 3741 3616 4241
00000080: 0400 0000 68e9 3741 d82f 363f cae9 5941
00000090: 0400 0000 612c 5941 dee6 613c a868 1441
000000a0: 4947 253f 7089 5341 0400 0000 b6a6 6e41
000000b0: a711 8b07 5776 6941 a955 2841 eb87 5c41
000000c0: 33d0 2a41 dd75 5d41 3056 a53c 6b65 f23d
000000d0: 3e7a 0f40 12ac 5241 027c e93e cf6a 6341
000000e0: cc18 b240 8e02 e232 60ca 5041 6350 5d3f
000000f0: 3521 4c41 ebcb 2a3c 0400 0000 b03e 023f
00000100: 61d2 743f 0400 0000 157f 083d b7bb 283f
00000110: 6d63 113f cee6 8b41 6fcd af3f fda7 6e41
00000120: e920 0038 e44a 6141 0400 0000 679c 5e3f
00000130: 69bc a540 d6e3 c43c 14d3 e53e 9f1e 773f
00000140: 0400 0000 ba25 f23c 8886 7741 9af4 0e3f
00000150: 6ea6 4d41 9f2a 833c c838 273f 47ac 3641
00000160: df1c 7541 1b7c 1241 6841 3c3e 2a74 6741
00000170: 6ba9 013b 91bb 0e3f acd7 2941 948c 3441
00000180: 9c88 8d41 d909 053f 4980 8b3e cf63 3341
7.8135815 12.694709 11.024856 11.808756 18.20129 0.17050532 0.2973621 0.5978355
8.399879 0.68555087 0.02244447 0.74550885 0.38780132 12.615785 12.9335375 12.136259
0.42789236 0.024318947 12.58125 6e-45 0.045856822 1.4276059 0.73357785 0.998227
13.454234 6e-45 6e-45 0.07147077 6e-45 1.0881513 11.472759 12.130423
6e-45 11.494484 0.71166754 13.619577 6e-45 13.573335 0.013787953 9.275551
0.645619 13.221054 6e-45 14.915701 2.092477e-34 14.591392 10.520913 13.783183
10.67583 13.841275 0.020182699 0.1183575 2.241836 13.167009 0.45602423 14.213576
5.565527 2.6311024e-08 13.049408 0.86450785 12.758107 0.010424594 6e-45 0.50876904
0.9563351 6e-45 0.03332432 0.6591143 0.56792337 17.487698 1.3734568 14.916013
3.0548228e-05 14.080784 6e-45 0.869574 5.1792493 0.024034422 0.44887602 0.965311
6e-45 0.029559005 15.470345 0.5584198 12.853132 0.016011534 0.65321016 11.41706
15.319549 9.155299 0.18384326 14.46586 0.001978482 0.55754954 10.615154 11.284321
17.691704 0.5196815 0.2724631 11.211867

layers.4.weight f4 [50, 100]
00000000: f48c cb3e d681 87be 260b 963e 8ffb b73e
00000010: 223c f03c 665b 3f3e 0174 87bc 2e62 413e
00000020: 4a0a 1b3e 7b43 5bbe 30db c5bd a672 2b3e
00000030: 0448 263e 3393 82be f20f a43c 1e9f 0dbe
00000040: 1a32 013e 47e0 4cbe a1a2 653e fe37 a1be
00000050: 355c 4cbf 4f3e 333e 6e62 713e abe0 bdbe
00000060: 60be c0bd feae 07bd e760 543f 7414 b0bd
00000070: 58c6 7a3e 03a2 23be 61c2 c43e b418 943e
00000080: e340 30bf 6b19 98bd fe97 97bd b40b 8b3e
00000090: 886f 943f c20f ff3d 25c8 56bf 18b8 b83e
000000a0: 76ee 3e3e 9cbd e83e c477 ee3e 8921 83be
000000b0: dd8e 413f bd07 5f3d ef01 59be e5c5 62bc
000000c0: c1ff 15bd 8a59 4d3d d97a c83e e426 0dbf
000000d0: a58c ac3e d935 69bd 74b6 78be 8ff5 0dbf
000000e0: 8259 163e 83b5 02bf cfc9 bc3e 1a9d 07be
000000f0: c7c4 8d3e 8f02 673f 3ba9 42bd 6238 22be
00000100: c247 8d3e d50c 173d 36e9 bbbf 8fbb ac3e
00000110: 90fd 553e 0e9b 60bd a61f 99be 042d eabc
00000120: e185 a7be cf9a 983e ac94 c33e dfd6 aebe
00000130: bf64 2fbe 0cc4 153e 14f6 59bd e42c 7e3e
00000140: fdcb 84bd 6b3f 7dbf 6618 003e 9f1a 3e3d
00000150: 8810 e9bd 2e3b 84bf dec7 0ebe c676 bdbd
00000160: 2527 04be c18c 2bbd e2ce 0540 b8e9 8a3d
00000170: 3134 6d3f c003 313f bd44 ccbc c003 b03e
00000180: 64c1 28bd 593e 7abe 62f3 b53f 4955 21be
00000190: 4e5e 19bd f296 ecbe a210 1b3c c153 d6be
000001a0: 5831 8fbf 50f7 13c0 30d8 95c0 4166 d4be
000001b0: 136d 50bf 1644 cd3e e9b2 8cbf 7f9a 073f
000001c0: 5376 c5bf 3f4b c6be 9220 5bbd b30a 1c3f
000001d0: 2c0a 50bf 88a3 443e bac6 ab3e 7ebe 92bf
000001e0: be92 18bf 65ca 5b3f 36f5 22c0 2152 7e3e
000001f0: 8726 9cbe bf46 7ebe fe2d 923e ea94 083f
00000200: 13ab 4b3f 6dfb 01c0 07f0 043f 7bf3 04bf
00000210: ce8b 523f 52d0 19bf 47eb b03a f702 23bd
00000220: 0138 b6bb 085d 193f a970 98bf e0d6 a8bd
00000230: 8961 703e ba38 7abf 8e38 09bf 1c21 23bf
00000240: 7dab ab3f 488b e7be 6265 18bf be27 23bf
00000250: d7e8 05bf 8309 e83e 0bdc 10bf 517f c2bd
00000260: 0674 90bd 6695 c0bd 15c7 00be 0e6f bb3e
00000270: 5d8e e93e be4b f23e 7d4a 83bf 6684 853e
00000280: d9fa d53d c376 a7be 3143 d7bd 43a7 fc3e
00000290: 642c e3bc 4f2e 85bd ff51 aabe c106 84be
000002a0: 237d 3d3f f277 44bf 134a 973e ad67 7ebf
000002b0: 53bf bd3d 7d22 efbe a4ef 573f 8735 123f
000002c0: 9085 9dbf e07a 313f 039c 253f 6166 143e
000002d0: eaa6 0bbf 8ab5 d1bd 373c 38c0 f865 95be
000002e0: 4016 8cbf a0ff 40be 170b 3bbe a9e9 093e
000002f0: 4a9e 923f 2930 07bf 368f 82be d26c 3cbf
00000300: 61bf ca3f 9fcc e73e 4b31 c3be 48e8 6dbe
00000310: a588 bbbe 0382 1c3f 996b dbbe be7f ebbe
00000320: 7a06 ea3d 3e0e 5abd 7474 893e 8675 6abd
00000330: 18b9 ae3e 6fda b9bc 7318 bdbc ed56 913d
00000340: a289 9b3d 3600 b5be 47ab f83c 8eb3 8cbe
00000350: 85da c6bd f821 cf3d e4e7 a23e 19e2 1abe
00000360: 2f1f 90be a072 06bf 48cd 4abe af45 05bf
00000370: cc34 913f 38fb eebd 3a86 273e 8f75 c53e
00000380: fbdc 5cbe b04f c1bd ef8e d03e 26b4 e1be
00000390: 13a8 34bf d5e1 84be 62e8 ef3d dd19 f8bd
000003a0: 8a7b 8abe b05d 083e 74d4 2dbf 81a5 abbd
000003b0: 6670 2bbe 9d05 36be c1ab ab3f a605 2a3e
000003c0: c513 db3e 8e59 ffbd 1f63 ccbd 81bb 653e
000003d0: 205a 33bf 049d 8a3d 183a 043e 64fa 3e3e
000003e0: cd3a 9bbd dae8 6a3e 11f3 bdbe 5fdc ee3e
000003f0: 2a78 18bc ea89 c33e b3c2 5fbe 4caa f7bd
0.39755976 -0.26466244 0.2930538 0.3593411 0.029325549 0.1868721 -0.016534807 0.18885109
0.15140644 -0.2141246 -0.09660947 0.16742954 0.1623841 -0.2550293 0.020027135 -0.1383023
0.12616768 -0.2000743 0.22425319 -0.3148803 -0.79828197 0.17504238 0.23572704 -0.3708547
-0.09411311 -0.03312587 0.8296036 -0.08597651 0.24489725 -0.15979771 0.3842955 0.28925097
-0.6884901 -0.07426723 -0.07402037 0.27157366 1.1596537 0.124541774 -0.83899146 0.36077952
0.18645653 0.4545716 0.4657575 -0.25611523 0.7560862 0.05445074 -0.21192144 -0.013841127
-0.03662086 0.05013422 0.39156225 -0.5513747 0.33701053 -0.05693612 -0.2428835 -0.5545282
0.14682582 -0.51058215 0.36872718 -0.13243523 0.27689192 0.9023828 -0.047524672 -0.15841821
0.2759381 0.036877472 -1.4680545 0.33736846 0.20897508 -0.05483537 -0.29906958 -0.028585918
-0.3271933 0.2980561 0.38199365 -0.3414831 -0.17128275 0.14625567 -0.053213194 0.24821812
-0.0648422 -0.98924893 0.12509307 0.046412107 -0.11380106 -1.033056 -0.13943431 -0.0925117
-0.12905557 -0.04188228 2.0907521 0.067828596 0.9265776 0.6914635 -0.02493512 0.3437786
-0.041200057 -0.24437846 1.42149 -0.1575519 -0.03744345 -0.46208912 0.009464415 -0.41860774
-1.1186934 -2.3119698 -4.68264 -0.41484264 -0.81416434 0.40091008 -1.0992099 0.5297012
-1.5426735 -0.38729283 -0.05349786 0.60953826 -0.8126552 0.19203007 0.33550054 -1.1464384
-0.5959891 0.85855705 -2.5462165 0.24836017 -0.30498144 -0.24831675 0.28550714 0.53352225
0.79557914 -2.0309708 0.5192875 -0.5193402 0.82244575 -0.60083497 0.0013497852 -0.03979775
-0.0055608754 0.5990758 -1.1909381 -0.08244109 0.23474707 -0.9774281 -0.5360192 -0.63722396
1.3411709 -0.4522345 -0.595297 -0.63732517 -0.5230841 0.45319757 -0.5658576 -0.0949694
-0.0705338 -0.094034955 -0.12575944 0.36608166 0.45616427 0.47323412 -1.0257107 0.26077574
0.10448236 -0.32707796 -0.105108626 0.4934636 -0.027731128 -0.06502973 -0.33265683 -0.25786403
0.7401907 -0.7674552 0.29548702 -0.99376947 0.09265008 -0.46706 0.8435004 0.57112926
-1.2306385 0.6932812 0.6469118 0.1449218 -0.54551566 -0.10239704 -2.8786752 -0.29179358
-1.094429 -0.18847513 -0.18265949 0.1346804 1.1454556 -0.5280786 -0.25499886 -0.73603547
1.5839654 0.452733 -0.38123545 -0.2323314 -0.3662769 0.6113588 -0.42855528 -0.45995897
0.114270166 -0.05323624 0.2684666 -0.057240985 0.3412559 -0.022687165 -0.023082947 0.07096658
0.07594611 -0.35351723 0.030355109 -0.2748074 -0.09709648 0.10113901 0.31817544 -0.15125312
-0.2814879 -0.52518654 -0.19804871 -0.52059454 1.1344237 -0.1166901 0.16359797 0.38566253
-0.21568672 -0.09439027 0.4073405 -0.44082755 -0.7056896 -0.25953546 0.117142454 -0.12114308
-0.27047378 0.13316989 -0.679023 -0.08381177 -0.16742095 -0.17775579 1.341179 0.16603717
0.4278852 -0.12468253 -0.09979843 0.22434808 -0.70059395 0.067682296 0.12912786 0.18650204
-0.07579575 0.22940388 -0.37099507 0.46652505 -0.009305993 0.38191158 -0.21851616 -0.120930284

layers.4.bias f4 [50]
00000000: 2e09 3041 22b5 c940 76b0 1141 8b19 ef40
00000010: 3e10 1f41 f3f3 6940 6db8 ca40 ee71 9340
00000020: c140 b840 e16d 2f41 66c0 c540 3a2b d840
00000030: 8f47 2d41 ce47 cb40 028f bb40 3fa3 8540
00000040: 5181 2c41 6a31 cc40 79d5 db40 4827 b540
00000050: e745 0241 12b1 1e41 9de0 2e41 d469 c640
00000060: 27a3 1741 94bd 2b41 5db1 ec40 84ea bb40
00000070: c0aa 2841 d35d c140 0e1c 1441 d826 0a41
00000080: 5ff0 2c41 101c 2741 2654 de40 1886 f740
00000090: 24c0 3541 c85a ce40 3cf6 2841 103d d140
000000a0: aa45 8a40 a6bb 1941 6120 d240 04ff 7640
000000b0: 4988 0641 cd71 2141 bf91 2241 bf57 f540
000000c0: 6cf4 8440 62e0 c940
11.002241 6.303361 9.105581 7.471868 9.941465 3.6555145 6.335013 4.6076574
5.7579045 10.964326 6.179736 6.7552767 10.82997 6.352515 5.861207 4.1761775
10.781571 6.381032 6.8698087 5.661045 8.142066 9.91823 10.929837 6.2004185
9.477332 10.733784 7.396651 5.8723774 10.541687 6.042703 9.256849 8.634483
10.808684 10.444351 6.947772 7.735119 11.359409 6.4485817 10.560116 6.538704
4.321004 9.608313 6.5664525 3.859315 8.408273 10.090283 10.160583 7.666961
4.1548367 6.3086405

layers.6.weight f4 [50]
00000000: 823e 0542 d829 0542 b528 0d42 538a 0542
00000010: b82a 0342 9bab 0442 d1f6 0442 cd61 0542
00000020: 54ab 0342 6189 0742 6254 0442 26d5 0342
00000030: f02a 0442 3008 0542 2225 0442 2d4c 0342
00000040: da23 0642 9135 0442 31dd 0542 e1a8 0642
00000050: a051 0342 6f75 0442 b9ce 0542 d82c 0642
00000060: 85cb 0242 2602 0742 a5e6 0342 2be3 0442
00000070: f068 0442 159f 0442 c73a 0542 8d46 0542
00000080: 6e49 0642 6a12 0442 82a9 0642 3046 0542
00000090: 9afe 0742 ece2 0542 d187 0442 8c5d 0542
000000a0: 8b78 0342 e4b6 0342 aeac 0442 6fed 0242
000000b0: 8d9c 0342 24f0 0442 5680 0342 e653 0442
000000c0: aa59 0542 7c6e 0742
33.311043 33.290863 35.289753 33.385082 32.791718 33.167583 33.24103 33.34551
32.917313 33.88416 33.082405 32.958153 33.04193 33.257996 33.036263 32.82439
33.53501 33.05231 33.466007 33.66492 32.829712 33.11468 33.451878 33.543793
32.69875 33.752098 32.97524 33.221844 33.102478 33.155354 33.3074 33.318897
33.57171 33.017982 33.665535 33.318542 33.998634 33.471603 33.132633 33.341354
32.867718 32.928604 33.168633 32.73187 32.90288 33.234512 32.875328 33.081932
33.337563 33.857895

layers.6.bias f4 [50]
00000000: 7022 73c2 ffe6 7242 8101 74c2 4044 7342
00000010: bfe7 72c2 0ad2 7342 3fc8 72c2 7fc9 7342
00000020: d311 7342 ceec 73c2 a2e2 7242 e8df 7342
00000030: 7f08 73c2 17be 7342 fd79 7342 90af 7342
00000040: c3a1 73c2 77a2 7342 a522 73c2 4013 7342
00000050: 4bc7 73c2 eb25 73c2 bcb8 73c2 aecb 7342
00000060: 1317 73c2 d1cb 73c2 44d9 73c2 a127 7342
00000070: 2c44 73c2 d061 7342 1219 73c2 c8f3 72c2
00000080: 10da 73c2 a987 73c2 33ea 72c2 5d06 7442
00000090: 5e9f 73c2 182a 73c2 e6e5 72c2 1713 7442
000000a0: e59b 7342 c14d 73c2 bed6 7342 94f2 7242
000000b0: f022 73c2 2917 73c2 286c 73c2 5a9a 73c2
000000c0: cd60 7342 9c15 7442
-60.78363 60.725582 -61.00147 60.81665 -60.726315 60.955116 -60.695553 60.946774
60.767406 -60.981255 60.72132 60.96866 -60.758297 60.935635 60.86913 60.921448
-60.90797 60.908657 -60.783833 60.7688 -60.944622 -60.78703 -60.930405 60.948906
-60.772533 -60.94904 -60.962173 60.7887 -60.816574 60.84552 -60.774483 -60.738068
-60.96295 -60.88248 -60.72871 61.006214 -60.905632 -60.791107 -60.72451 61.018642
60.90224 -60.82593 60.95971 60.736893 -60.78412 -60.772617 -60.85562 -60.900734
60.844532 61.021103

layers.6.running_mean f4 [50]
00000000: 16a2 3c41 f09c 9940 ee2c 1b41 e79d cd40
00000010: 580f 2741 2041 7740 bb74 bf40 d483 7e40
00000020: 828b 8640 48c2 3a41 c312 9440 f28f 8d40
00000030: 58ee 3241 75f6 9640 e29a 8c40 fb02 7740
00000040: 73c9 3641 06d2 a040 5203 d440 cda3 8240
00000050: 0bf3 1941 30ab 2341 5d77 3841 ef32 8640
00000060: fd17 2041 feb7 3d41 f906 0741 0c2b 8a40
00000070: 3a4d 2f41 c1e3 8e40 68a1 1941 60d2 0941
00000080: 2617 3341 80e5 3241 adfa 0441 956d ce40
00000090: f93b 3d41 d1e7 bd40 b723 3541 9e73 9e40
000000a0: 6419 8040 18da 2941 5d5e 9840 fd1c 6c40
000000b0: 4390 0841 1690 2c41 bc2f 3441 22c5 0a41
000000c0: 4237 3540 3702 9140
11.789572 4.8004074 9.698469 6.425525 10.441246 3.86335 5.9829993 3.9767962
4.20453 11.672432 4.6272902 4.4238214 11.183189 4.717585 4.3939066 3.859557
11.424182 5.0256376 6.6254053 4.082495 9.621837 10.229294 11.529141 4.1937175
10.0058565 11.85742 8.439202 4.3177547 10.956354 4.465302 9.601906 8.613861
11.193151 11.18103 8.3112 6.4508767 11.827142 5.934548 11.321219 4.9516134
4.0030994 10.615746 4.761519 3.6892693 8.53522 10.785177 11.261654 8.673128
2.8314977 4.5315204

layers.6.running_var f4 [50]
00000000: 193e 1f40 20c6 b441 a101 9942 cf53 e141
00000010: eb1f 2840 4932 5e42 8063 bd40 62bc 3642
00000020: 0198 2342 779c 7140 a7cf f141 ef39 0542
00000030: 5a12 2a40 36d3 0e42 b43f 0542 4691 4d42
00000040: 87a9 2e40 fbd8 0342 3468 2241 9a20 2b42
00000050: 45e6 a841 19eb 0241 b5f6 9a40 a4bf 1e42
00000060: 5ff8 6640 2764 4040 300b 5041 4bc5 ff41
00000070: 90c9 2940 eafd 2e42 9383 af40 dd70 c740
00000080: 7ec3 2940 b2e2 8340 0ba8 1642 ce86 0242
00000090: 2be8 f43f ea68 ef40 d537 5340 bdd7 7041
000000a0: 6a22 4542 8c5c 8740 9ce8 2142 4b2e 3242
000000b0: 2ccb c440 a10e 5140 346e cf40 58d0 a541
000000c0: 7690 1042 3960 0b42
2.4881651 22.59674 76.50318 28.165922 2.626948 55.549107 5.918396 45.683968
40.89844 3.7751749 30.226393 33.306576 2.65737 35.70626 33.31221 51.39187
2.7290971 32.961895 10.15044 42.781837 21.112436 8.182397 4.8426156 39.68715
3.6089094 3.0061128 13.002731 31.971334 2.6529274 43.747963 5.4848113 6.2325273
2.652557 4.121423 37.664104 32.631645 1.9133352 7.481557 3.3002827 15.0526705
49.283607 4.230047 40.477158 44.545208 6.1498013 3.2665179 6.4822025 20.72673
36.141075 34.843967

layers.8.weight f4 [1, 50]
00000000: c569 68c2 a45e 6842 100f 68c2 1c07 6842
00000010: a7cd 68c2 01bf 6742 59be 68c2 1db4 6742
00000020: c837 6842 cd0b 68c2 5d4a 6842 0360 6742
00000030: 2983 68c2 4ad4 6742 e3fe 6742 0ade 6742
00000040: 6a04 68c2 ae7a 6742 5a72 68c2 2351 6842
00000050: 2fd2 67c2 c077 68c2 8ae3 67c2 13df 6742
00000060: f52b 68c2 d7fb 67c2 13db 67c2 973d 6842
00000070: 263a 68c2 9017 6842 c49f 68c2 0baa 68c2
00000080: 3cec 67c2 bb33 68c2 76d7 68c2 edaf 6742
00000090: cb15 68c2 64a1 68c2 0ee1 68c2 4f81 6742
000000a0: a183 6742 9f74 68c2 ad9f 6742 8f30 6842
000000b0: 2a70 68c2 5f47 68c2 931a 68c2 5543 68c2
000000c0: 50fb 6742 5079 6742
-58.10329 58.092422 -58.01471 58.006943 -58.200832 57.936527 -58.185886 57.92589
58.054474 -58.011524 58.07262 57.84376 -58.128086 57.957314 57.998913 57.966835
-58.00431 57.869804 -58.11167 58.079235 -57.955257 -58.116943 -57.972206 57.967846
-58.042927 -57.995937 -57.96394 58.060146 -58.056786 58.02301 -58.15602 -58.166058
-57.980698 -58.050518 -58.21041 57.921803 -58.021282 -58.157608 -58.21978 57.876278
57.878544 -58.113888 57.905933 58.04742 -58.109535 -58.0697 -58.02595 -58.065754
57.995422 57.86847
