basics/HouseWeights.pt (torch, 39667 bytes, 21 tensors)

embeds.0.weight f4 [15, 8]
00000000: e707 a13d 04c4 e8bc 6a1c 66bc fdb8 8fbd
00000010: 406b 6c3d e564 6dbd e728 2bbc 800f 99bd
00000020: bf02 213f fb77 453f 0d11 383e 456d 643f
00000030: 527d f03e e8f4 373f 5d9b 163e b8b4 cdbe
00000040: 5aa6 823b a272 96bf 4a7f 2fbf aa31 763e
00000050: 1524 2abf 77fe 06c0 055c 263f 3e2d a53e
00000060: dfc5 063e c177 02bf c8d6 a1be f9e4 8bbd
00000070: 974e 2abf e8d7 84bf e4dd fc3f 9132 193f
00000080: 227e 763d bac2 e43d 8987 48bf c2ea 9bbe
00000090: 30bb 353d 440c c6bf 01d3 e73e 0ac0 2fbd
000000a0: 7af3 003e c3ec 3b3b 4110 6a3c b398 d93b
000000b0: fbb6 273e d0cd 843c 9203 4abc 2b4e 66bd
000000c0: b2b2 dabd 7412 febf faa3 af3e 6edc 0540
000000d0: 4298 a0be 67b8 47be 73ef f9bc b3df 983e
000000e0: 1456 56bf e542 283e 4e47 263e 685d a5be
000000f0: 8284 91be 47b7 32bd efc8 c9be f5b6 0b3f
00000100: 1dcc 69bd 7dc8 02bd 8c40 bdbc e60a 86bd
00000110: e98a 51bd 51c4 aebd dfd0 16be 38cd 203e
00000120: 283b 7fbe 69a6 913d e200 633e ed55 8dbe
00000130: ee79 74be 368d b9bc d0ac 303e fa66 f83e
00000140: b860 ee3f 7f02 823f dce0 d4bf a4cb 82bf
00000150: 6e8c 8c3f bba6 913e eeb6 5640 7dee cfbf
00000160: 9a70 04bf 9650 25be be7d 433e 0426 383e
00000170: fc1b 05bf 253d b93e 6233 3fbe b707 8c3e
00000180: d7a9 8abd b0ac 593d c051 51bf 102b d7be
00000190: ba7b 38bd 1e37 d0bd 08ce c3bd c014 b4bc
000001a0: c147 403f 5938 5f3f 45df 0dbe b91c 083d
000001b0: 36d6 4b3f 10aa 963e f976 bcbe 69bd 76bf
000001c0: 59aa 183f a731 0dbf 5082 cfbf d5b6 8ebf
000001d0: a704 1b3f a822 fc3e 54c2 4d3f de9e 2abf
0.078628354 -0.02841378 -0.01404486 -0.070177056 0.05771947 -0.05795755 -0.010446764 -0.074736595
0.62894815 0.771362 0.17975254 0.8922923 0.46970612 0.7185807 0.14707704 -0.4017694
0.003987116 -1.1753733 -0.685536 0.24042383 -0.66461307 -2.1092813 0.6498416 0.3226108
0.1316142 -0.5096398 -0.31609178 -0.068307824 -0.6652617 -1.0378389 1.9755216 0.59842783
0.060178883 0.11169954 -0.7833181 -0.30452543 0.04436797 -1.5472493 0.4527817 -0.042907752
0.12592879 0.0028675057 0.014286102 0.0066405176 0.16378395 0.01621142 -0.012329953 -0.05622689
-0.10678615 -1.9849381 0.34304792 2.091579 -0.31366163 -0.19503938 -0.030509686 0.2985817
-0.83725095 0.16431768 0.16238138 -0.32297826 -0.28421408 -0.04363182 -0.39411113 0.54576045
-0.057079423 -0.03192948 -0.023102067 -0.065450475 -0.051157866 -0.08533538 -0.14728115 0.15703285
-0.2492491 0.07111818 0.22168306 -0.2760462 -0.23874637 -0.022650342 0.17253423 0.48516065
1.8623266 1.0157012 -1.6631122 -1.0218396 1.0980356 0.28447518 3.3549151 -1.6244656
-0.51734316 -0.16144022 0.19090936 0.17983252 -0.51995826 0.36179462 -0.18671945 0.27349636
-0.06770676 0.053143203 -0.81765366 -0.42025042 -0.04503987 -0.10166763 -0.09560782 -0.02198255
0.7510949 0.87195355 -0.13854702 0.033230517 0.79623735 0.29426622 -0.3680952 -0.96382767
0.5963493 -0.5515389 -1.6211643 -1.1149546 0.60553974 0.4924519 0.80374646 -0.6664866

embeds.1.weight f4 [5, 3]
00000000: aab6 983f fd62 91c0 6573 4dc0 eea1 35bf
00000010: 8677 623c c4d7 663e 5463 923e 7f48 9bbf
00000020: 408a 55be 9779 80bc 8d2c 9abc 1ab2 57ba
00000030: c1e0 293e 7fb2 c83e f3c0 34bf
1.1930745 -4.5433335 -3.2101681 -0.7095021 0.013822442 0.22543246 0.28591406 -1.2131499
-0.2085352 -0.015682979 -0.018820072 -0.00082281383 0.16589643 0.39198682 -0.7060692

embeds.2.weight f4 [2, 1]
00000000: eb1d 0d40 e422 423c
2.204951 0.011849139

embeds.3.weight f4 [4, 2]
00000000: cad0 b33e bafc 6abe 731a 723e b0f4 3ebf
00000010: 8740 f7bf a757 2bbf aab3 05be 15c9 083d
0.3512023 -0.2294797 0.23642902 -0.74592113 -1.9316567 -0.6693062 -0.13056818 0.03339489

bn_cont.weight f4 [5]
00000000: b779 083f 762e 293f 0ecd 9a3f dbc9 663f
00000010: 5cef 0440
0.5331072 0.6608652 1.2093828 0.90151757 2.0771093

bn_cont.bias f4 [5]
00000000: 0ea5 93be eb10 47bf 7d7e e6bf d347 87bf
00000010: d65e fa3f
-0.28836864 -0.7776019 -1.8007351 -1.0568794 1.9560192

bn_cont.running_mean f4 [5]
00000000: 6229 8c42 8de7 1b46 c0c2 9044 25cb ab43
00000010: 5582 5942
70.080826 9977.888 1158.0859 343.58707 54.377277

bn_cont.running_var f4 [5]
00000000: 14f6 1044 0e52 774c e828 0f48 9371 3848
00000010: 9163 7a44
579.845 6.483359e+07 146595.62 188870.3 1001.5557

layers.0.weight f4 [100, 19]
00000000: 976c e4bc 60b8 b93e 6577 39be 7d52 97bc
00000010: 4981 dc3b 4fcb 843e 09d9 9dbd 8ea1 7bbe
00000020: 3e03 323f 99c6 b23d ac4f 42be e1d4 cb3e
00000030: a82a 17bf 40c1 a43f 3a10 eabe f93e abbf
00000040: 2d53 e0bf ad45 fabf 5c2e f83e 846f f43d
00000050: c25a 863e f4dc dabe 1d93 9abe f6fd 543f
00000060: 9802 973f e233 073e db44 95be a9c4 0c40
00000070: 8565 cc3f c8f4 a0be 6f25 d33e 05e7 a4bf
00000080: 0c7e 6d40 bbed 81be f9b6 57c0 2f15 6f3f
00000090: 78f1 523e e217 d83e 8418 03be ba54 743d
000000a0: 50d5 a2b9 7846 27be ca13 853c 6571 063f
000000b0: 7068 f63d 9248 90bd 68a5 b03e c81b f1bc
000000c0: 87e5 07bf dcfd 0a3f 02c6 52bf ec24 6b3f
000000d0: cee2 57bf 3500 abbf 9489 cbbf f90b 0bc0
000000e0: 4af3 273f a172 0d3e 9924 8f3e f1c6 3cbe
000000f0: 769a d6be 4a04 4f3f eb54 2ebe 3a0d 7d3e
00000100: c5e9 27bf c07e eb3e db47 0ebf e39b 81be
00000110: dc9c a0bc d6d4 2bbf e78b 763f c029 a7be
00000120: d1ab 55c0 2f8a 93bf 25c2 b1bf c309 1d3f
00000130: 924a 47bf d740 3fbe 300d a53e 66ba ab3e
00000140: ebdf f4be 3bcb 9f3e 6879 59bf 27bf 3f3f
00000150: 7c04 7e3f 6bb4 1fbd 3897 dcbe 13b3 bf3e
00000160: 9550 0340 2009 d3bf cd28 243f dbdf 633e
00000170: 175e 2cc0 e9a4 aabf 7e05 80be aa32 823f
00000180: 8df7 d53e 402f 0fbe 86e3 b4bd 3f65 a03f
00000190: 338c 05bf 25c1 823f b6a1 a0bf 4c5e 133e
000001a0: 8c0f 0cbf 7162 5ebf 650f c23e 7fc3 44bf
000001b0: 4b55 553f 4db5 65bd 6163 c1bf dad7 8bbf
000001c0: 12cd c6bf 333a 4f3f 81a2 ca3e 130b d4be
000001d0: 552f d73d 4be6 a43e 88ad af3e 807f 043f
000001e0: f10a 07be 2af1 f6be a53f c53f 1267 b83e
000001f0: d64a cbbf 23e5 c93e 8b66 54bf 7170 c5be
00000200: da7e d7bf 984d 3a3f 0c1c 00c0 d417 1ec0
00000210: 294c 483d d159 67be 46be 393e 343b 30be
00000220: d007 d7bd 6055 4dbe d76e 28be 7e9c 7dbc
00000230: 552f 0ebd bfbb 8f3d 938e 46be 0e19 0ebe
00000240: 0ea5 efbd ddad 593e 2d50 523e c3ef 3a3e
00000250: e52a 563f f548 193f 8ccc 383f c4fd 58c0
00000260: 28cf cdbd b667 a43d 0352 c1bd 76f3 0f3e
00000270: 5fc2 3b3e 464d d13d 1beb 0fbb 5847 0abf
00000280: 41ee da3e 80fb 8cbe 5035 90bd 480a 9d3c
00000290: 37cf 1cbe 8b89 fd3e bdee abbe 8552 4dbf
000002a0: 5be1 b1bf 0eb6 edbf 9aed ea3e 52ea c93d
000002b0: e77e 473e 151f 4c3f 71df 2e3f 40aa aa3e
000002c0: 785f 323f e0c4 91bf 3204 8e3d 06ad 2fbd
000002d0: 9377 b2bd 0d44 0fbd f87d a2bd 3e5f 223d
000002e0: 6a6b a23e 6468 7cbf 6f73 963f f198 873f
000002f0: 03cb 063f 676c a8bf 3713 903f 20a2 80bc
00000300: 8e14 0f3e 21bb c83d 35b8 ac3f 7546 51bf
00000310: 90b2 893f c093 b2bf 49dc 413e 3dab a3be
00000320: 95c9 da3e 4b3b 48be fa36 113f 84e7 023f
00000330: a9fe a13f 443a f33f ce1f b3bf 3081 05c0
00000340: d5fc 1f3f ac41 f2bd cbac f33e 9ec5 1dbe
00000350: af6a 5dbf d0a6 3ebe 80b8 9abf 696f 7ebe
00000360: daa2 90be 02a0 db3f 282f 8f40 f285 06c0
00000370: 52cf e9be c4aa a9be ad9d 48be c251 193f
00000380: 145e c63f 7e6c a1bf 096f c73d 062e 7abf
00000390: 3a2d 4d3f bfb1 293d cd2e b4be c677 f8bd
000003a0: 84e2 8a3f 4a59 9cbe eab4 023f 808c 5cbf
000003b0: 14e2 0c40 8599 3b40 1951 22bf a234 fd3e
000003c0: f335 b1bf 2f2a 8740 9a34 8abe 35a3 52c0
000003d0: 8ca1 863f f8d8 573e 7c00 843d e50c 043f
000003e0: c6ce 0d3f ac1e d0be 867c dbbe 1db4 6a3f
000003f0: 6789 10bd 3e8f 0d3f ef48 74be 6273 e83d
-0.02788381 0.3627348 -0.18111952 -0.01847195 0.006729279 0.25936362 -0.07707412 -0.24573347
0.695362 0.08729286 -0.18975705 0.3981085 -0.59049463 1.2871475 -0.45715505 -1.3378593
-1.7525383 -1.9552513 0.4847287 0.119353324 0.26241118 -0.427467 -0.30190364 0.83200014
1.1797667 0.13203385 -0.29154095 2.1995032 1.5968481 -0.31436753 0.41239497 -1.2883002
3.7108183 -0.25376686 -3.3705428 0.933917 0.20599926 0.4220572 -0.1280232 0.059651114
-0.00031057978 -0.16335475 0.016244788 0.52516776 0.120316386 -0.07045092 0.34501195 -0.029432192
-0.53084606 0.5429361 -0.82333386 0.91853213 -0.8433045 -1.3359438 -1.590136 -2.1726058
0.65605605 0.13813259 0.2795761 -0.18435265 -0.4191472 0.8086592 -0.17024581 0.24712077
-0.6559108 0.4599514 -0.5557839 -0.25314245 -0.019606046 -0.67121637 0.96307224 -0.3264904
-3.3386118 -1.1526545 -1.3887373 0.6134302 -0.7784816 -0.18677078 0.32236624 0.33540648
-0.47827086 0.3120974 -0.84950876 0.7490105 0.9922559 -0.03899042 -0.4308412 0.3744131
2.0517933 -1.648716 0.6412476 0.22253363 -2.6932428 -1.3331577 -0.2500419 1.0171711
0.4179043 -0.13982868 -0.08832459 1.2530898 -0.5216705 1.0215193 -1.254935 0.1439144
-0.5471122 -0.8686896 0.3790237 -0.76860803 0.8333327 -0.056081105 -1.5108453 -1.0925248
-1.5531332 0.8094818 0.39577106 -0.414147 0.10507075 0.3220695 0.3431208 0.5175705
-0.13187768 -0.4823087 1.5410048 0.36016136 -1.5882213 0.3943263 -0.8296897 -0.38562348
-1.6835587 0.7277465 -2.0017118 -2.4702044 0.048900757 -0.22592856 0.1813899 -0.17210084
-0.10499537 -0.20052099 -0.16448532 -0.015479205 -0.034713108 0.070182316 -0.19390325 -0.13876745
-0.117014036 0.2125773 0.20538397 0.18255524 0.836592 0.5987695 0.72187114 -3.3904886
-0.100492775 0.08027594 -0.094394706 0.14057717 0.18335865 0.10219817 -0.0021960202 -0.5401511
0.42759898 -0.2753563 -0.070414186 0.019169942 -0.15313421 0.49519 -0.3358058 -0.8020404
-1.3896898 -1.8571184 0.458844 0.09859146 0.19482003 0.7973493 0.68309695 0.33333015
0.69676924 -1.1388206 0.06934394 -0.042889617 -0.08714213 -0.034977008 -0.07934183 0.03964161
0.31722575 -0.9859679 1.1753978 1.0593549 0.5265352 -1.3158082 1.1255864 -0.015702307
0.13972685 0.09801317 1.3493716 -0.81748134 1.0757618 -1.395134 0.18931688 -0.31966582
0.4273192 -0.19553868 0.5672451 0.51134515 1.2655841 1.9002156 -1.3994081 -2.08601
0.62495166 -0.11828932 0.47592768 -0.15407416 -0.8649091 -0.18618321 -1.2087555 -0.24847187
-0.28249246 1.7158206 4.4745064 -2.1019254 -0.45665985 -0.33138096 -0.19591399 0.5989038
1.549746 -1.2611234 0.09737975 -0.97726476 0.80147135 0.041429278 -0.35191956 -0.1213222
1.0850377 -0.30536872 0.510573 -0.86151886 2.2012987 2.931245 -0.63404995 0.49454218
-1.3844589 4.2238994 -0.26993257 -3.2912114 1.051805 0.21078861 0.06445405 0.51582175
0.55393636 -0.406484 -0.4286844 0.9168108 -0.035287287 0.55296695 -0.23855947 0.113501325

layers.0.bias f4 [100]
00000000: 783a c840 f34e 00c0 051d 8640 bc89 af40
00000010: 3b62 07c0 650e bf40 ca2d 1fbf 8740 9ebf
00000020: d520 f440 7357 2b40 3a27 39bf 19eb f5bf
00000030: a9bf 11c0 c62e c140 46f9 d340 f152 df3f
00000040: c6ec 2d40 3298 51c0 2a7c 22c0 18f8 13c0
00000050: 52dd 83c0 3410 3640 0890 b340 bc36 17c0
00000060: bacf 9240 de2c edbf 62e9 dabf ef44 de3e
00000070: 8440 0dc0 e2e1 5cc0 ed16 b7bf 1148 2dc0
00000080: 3ded be40 4332 8940 9458 863e 8406 cb40
00000090: 8f21 4640 98b9 45c0 29b4 e0bf d8b4 9b40
000000a0: 8620 8ec0 3647 12bf 1953 98be 21da 1c40
000000b0: 138c 4c3f df53 9140 49ac aa40 bb7b a040
000000c0: 113a cd40 4440 9040 c2a4 32c0 4791 d1bf
000000d0: c2fa e33f c495 8240 c407 37c0 3077 36bf
000000e0: c184 27c0 10a0 afbf 2bb8 fcbf 59a6 cebf
000000f0: fad0 b140 0104 5a40 6e34 02bf b9c7 953f
00000100: dbc2 3640 1e95 d440 1f34 9b3f 5465 613f
00000110: 674b 2840 7a29 e440 4a6f 3e40 41e6 c340
00000120: 4afe 07c0 68b9 9540 f0be a8bf b2ac 5040
00000130: 4043 e7bf 911e 3ac0 dbe1 493f cce2 2740
00000140: 5764 0bc0 e058 3abc 0c21 ecbf 45f2 53c0
00000150: 70d9 a9bf a905 afbf 5329 4e40 fe4c 9f3f
00000160: 33ea 93c0 988f b240 5f31 d540 e5fd c340
00000170: 702f 94bf 3d41 343e f02c de40 b900 27c0
00000180: e2f6 bd40 ba0b d1bf 33a3 5940 f364 b440
6.2571373 -2.0048187 4.1910424 5.4855633 -2.1153705 5.970507 -0.62179244 -1.2363442
7.629008 2.6772125 -0.7232548 -1.9212371 -2.277323 6.0369596 6.624179 1.7447187
2.7175765 -3.2749143 -2.5388284 -2.3120174 -4.1207666 2.844739 5.611332 -2.3627157
4.5878572 -1.8529317 -1.7102473 0.43411967 -2.2070627 -3.4512868 -1.4303871 -2.7075236
5.9664598 4.2873855 0.26239455 6.3445454 3.0957983 -3.0894527 -1.755498 4.8658257
-4.44147 -0.5713991 -0.29750898 2.4508135 0.79901236 4.541488 5.333531 5.015104
6.413338 4.507845 -2.791306 -1.637246 1.78109 4.080782 -2.859849 -0.71275616
-2.6174777 -1.3720722 -1.9743704 -1.6144515 5.55676 3.4064944 -0.5086125 1.1701576
2.855643 6.643203 1.2125281 0.8804524 2.6296022 7.130063 2.9755425 6.121857
-2.1248956 4.6788826 -1.318327 3.2605405 -1.8067398 -2.9081156 0.78860253 2.6232176
-2.1779993 -0.0113737285 -1.8447585 -3.311662 -1.3269482 -1.3673602 3.2212722 1.2445371
-4.622339 5.5800285 6.6622767 6.124743 -1.1576977 0.17603011 6.9429855 -2.609419
5.936387 -1.6331704 3.400586 5.637323

layers.2.weight f4 [100]
00000000: 9c2c 68be 84f0 e53e 4a41 873e d1b6 833e
00000010: c745 a53e d693 6f3e a16e 3f3e efef b63f
00000020: 4b58 363e fb85 853e a5f1 c13e 7e73 0dbf
00000030: 39b9 2b3f 3280 883e b9f9 2d3e 42b8 7d3e
00000040: 40c7 893e 1d6a 713f 06ef 6c3f b5c0 803f
00000050: 6baf 2f3f 16d0 813e b960 3d3e 5e9b 65bf
00000060: 5259 863e 5edf 853e 735e 45be bf64 083f
00000070: e754 793f c52c fb3e a7cf f63e 6b8c bd3e
00000080: a5f6 4e3e 8804 a33e e7e7 0a3f 069d 6c3e
00000090: 7612 913e 9f26 99bf 1cde 1d3f d8c8 883e
000000a0: f895 0abf 50ea da3e e665 80be 45e9 8b3e
000000b0: 0673 ad3e 2549 943e 5390 823e c00d 7c3e
000000c0: a4c3 853e 5afb 913e 6702 fdbe d985 973e
000000d0: 311a 7e3e 2423 853e e023 c0bf 5b91 a03e
000000e0: af13 7c3f 60a4 e7be 2a62 d13e 0c4b 903d
000000f0: 5e6c 953e fc9f 843e 2aa7 cb3e 8fbe 903e
00000100: 0e8c 9b3e 09dd 88be 63c7 d93e f571 733e
00000110: d1cb 4f3e ccf3 6f3e 965c 7d3e 4d54 a63e
00000120: 5c80 593e 6294 b33e 146d b83e 1fbc 663e
00000130: 76cc 723e dde5 1e3f ab3c 713e 5e72 913e
00000140: 4afa b83f acb1 a33e 3d37 db3f 5364 b73e
00000150: 94c1 d93e d1ee 7b3f baaa 7d3e 72bd a23e
00000160: 3a9d b63e b901 713e 1f0d a73e 9019 a83e
00000170: 269d a83e 8114 2a3f a460 783e 3dd7 c63e
00000180: 968e 903e 9ddd 6c3f 0f44 6a3e e38e 6b3e
-0.22673267 0.4491006 0.26417 0.25725415 0.32279798 0.23396239 0.18694545 1.4291972
0.17807119 0.2607878 0.37879673 -0.5525435 0.670795 0.26660305 0.16989793 0.2477732
0.26909828 0.9430254 0.9255222 1.005881 0.6862704 0.2535407 0.18493928 -0.89690197
0.2624002 0.26146978 -0.19274311 0.53278726 0.97395176 0.49057594 0.482053 0.37021193
0.20211275 0.31839395 0.54260105 0.23106775 0.28334397 -1.1964911 0.61667037 0.26715732
-0.54135084 0.4275689 -0.25077742 0.27326408 0.33876818 0.28962055 0.25500736 0.2461462
0.26125824 0.2851208 -0.49415895 0.29594305 0.24814679 0.26003373 -1.5010948 0.31360897
0.98467535 -0.45242596 0.40895206 0.07045564 0.2918424 0.25903308 0.39775974 0.28270385
0.3038029 -0.26731136 0.42534932 0.2377394 0.20292594 0.23432845 0.2474235 0.3248619
0.21240371 0.35074145 0.3602072 0.225327 0.23710808 0.62069494 0.23558299 0.28407568
1.4451382 0.3197149 1.7126232 0.3581873 0.425305 0.9841128 0.24772158 0.3178516
0.3566683 0.23535813 0.32627198 0.32832003 0.32932395 0.66437536 0.24255615 0.3883609
0.28233784 0.92525655 0.22877525 0.23003726

layers.2.bias f4 [100]
00000000: cc6d 2b3d e7e7 e23d 6ad7 bbbd 1e4a 0d3e
00000010: 2627 083e 95f3 4e3e e35f 4a3d c382 9c3d
00000020: 5a04 dc3d 468e 9a3d afdc 613e 6244 cebc
00000030: 55a5 513e 71d2 313e 70df af3d 1af8 31bd
00000040: 1f41 5b3b 624b b1bd 9df8 623e 8a1a c23c
00000050: a09d ae3d 350f 4dbd cdff df3d ca13 22bd
00000060: a269 ee3d 479b 60bd 01af 153e 71f6 963d
00000070: 6c27 9b3c 4e7d ca3d 1ea3 d23e 60b3 783c
00000080: 60ab c03d 6977 3e3e 600d 903c bf01 473e
00000090: ed4d 21be 9043 ae3d 0e3b 40bd ec86 5d3e
000000a0: c4a8 adbc a332 593e 2507 33be 208e 4ebd
000000b0: 05c4 8b3d 1e89 033e 6af6 34bd 60c2 a3bb
000000c0: 1fe6 79bc bbf3 523e 038f 12bc 9a70 12bd
000000d0: 9dc8 98bd d734 5b3e 025c 853b 10fc e93d
000000e0: 4744 203e 7a3b b3bd 3e5c ac3e 7991 c6bb
000000f0: 2f36 823e d79c febd 0abf 3a3d df37 b13d
00000100: fa52 b83d 6250 9dbd 7e57 dd3d 2b0a 373d
00000110: c2e4 c83c c5e2 de3c bc31 05bd 8b74 263e
00000120: f162 993d 2b73 933e 0291 0b3c 7a1a 2bbe
00000130: 09bd 423d dc23 a73e 9e3d a33d 6d84 973c
00000140: 1073 6aba 5a35 4fbb 11c0 113d c395 593c
00000150: 8471 173e 9e27 4a3d a594 18be 80f8 263e
00000160: 9645 64bd baca b23b a6ed 763e 303e d63d
00000170: 986e 563e 0210 a03d 9216 af3c 808a aabc
00000180: 13cd 4fbd bdb8 2b3d 558e e8bd 99ea 363e
0.041852757 0.11079388 -0.09171946 0.13797805 0.13296184 0.20210107 0.04940785 0.07642128
0.107430175 0.07546668 0.2205684 -0.025179092 0.20473225 0.17365433 0.08587539 -0.0434495
0.0033455563 -0.08656956 0.22165151 0.023694295 0.08526158 -0.05006333 0.10937462 -0.039569654
0.116412416 -0.054835584 0.1461754 0.07371224 0.018939696 0.09887181 0.41140074 0.015179485
0.09407687 0.18600239 0.017584503 0.1943426 -0.15752383 0.0850898 -0.04693132 0.216335
-0.021198638 0.21210723 -0.17483194 -0.05042851 0.06824497 0.12845275 -0.04418031 -0.0049975365
-0.015252619 0.20600788 -0.008945229 -0.035751916 -0.07460139 0.21406876 0.004069806 0.1142503
0.15651046 -0.08751579 0.33664125 -0.006059822 0.25431964 -0.124322586 0.045592345 0.08653235
0.090002015 -0.076813474 0.108077034 0.04468743 0.024523143 0.027207742 -0.032518134 0.16255395
0.07489575 0.28798804 0.008518459 -0.16709319 0.04754356 0.32644546 0.07970737 0.018495763
-0.0008943537 -0.0031617493 0.03558356 0.013280335 0.14789397 0.04935419 -0.14900453 0.16305733
-0.055730425 0.005456296 0.24114093 0.1046108 0.20940626 0.07815553 0.021373067 -0.020817995
-0.050732683 0.041924227 -0.11355273 0.1786293

layers.2.running_mean f4 [100]
00000000: 2afb 5841 6508 353f 4f85 3e41 165f 5341
00000010: 563d 5c40 962d 5141 35ae bf40 cf33 9f3c
00000020: 2926 5c41 fa41 993e 23b5 8640 57d4 733e
00000030: 8ed3 103f 71c6 4b41 139a 5541 f62b 1841
00000040: 1576 a53e 7b86 933b 8f4f 1d3f 1441 2d3c
00000050: c261 ad3c e956 133f 6b59 5541 a28d cb3c
00000060: ba8b 4341 0400 0000 021e 353c 2214 063e
00000070: e70f 853d 0598 933e 6dd9 a340 fb20 bf3c
00000080: c2c0 5541 0049 4541 0e16 e13d 51c3 4e41
00000090: cd46 383f 9aea db3a 0400 0000 2245 4841
000000a0: baa3 663c b82c 9240 d8e3 d340 e31c 3041
000000b0: 003f 303e 0b67 4641 d818 4b41 2ebb 4c41
000000c0: 8842 4e41 a5d1 4841 0400 0000 6669 183d
000000d0: f8ec 1341 d6e6 4241 29f2 3d3b 1b9f a43f
000000e0: 17da 123e f83c a73c 1e1e 6040 0400 0000
000000f0: 6ebe 4f41 60af 723f 1c7f 683d 998c 903e
00000100: a27a b43e e026 5841 50f8 373e 8fe9 b03e
00000110: a28e c53e c75f 5941 6c3e ec3e 0104 4a41
00000120: 2a7c 183e f554 4641 0400 0000 7f4d 263f
00000130: ded7 513d cebe 9e3f 6be7 aa3e 3dbb a33e
00000140: 181e c03a fc03 2b3e 262f c13a 31df d93c
00000150: 6bd2 5840 2738 1a3c cc2c 4f3f f225 f340
00000160: 94d5 733e 9867 5341 ca8d 5f41 2f29 4d41
00000170: 3243 a540 0f06 ef3d c1a4 5241 c06a e13d
00000180: 511f 4b41 2194 e33c bda6 393f d548 4a41
13.561319 0.70715934 11.907546 13.210714 3.4412436 13.073629 5.9900155 0.019433884
13.759316 0.2993315 4.2096114 0.2381147 0.56572807 12.735948 13.350116 9.510733
0.32316652 0.0045021153 0.6144952 0.010574598 0.021164779 0.5755449 13.334331 0.02484781
12.221613 6e-45 0.011054518 0.13093618 0.06497174 0.2882692 5.120291 0.023331156
13.35956 12.330322 0.10990535 12.922685 0.71983033 0.0016778291 6e-45 12.516878
0.014077121 4.567959 6.621563 11.007052 0.17211533 12.400157 12.693565 12.795698
12.891243 12.551183 6e-45 0.03720989 9.245354 12.181356 0.002898345 1.2861055
0.14341007 0.020414814 3.5018382 6e-45 12.983992 0.9479885 0.056761846 0.28232267
0.3524981 13.509491 0.17965817 0.3455319 0.38585383 13.585883 0.46141374 12.6259775
0.14891115 12.395741 6e-45 0.64962 0.051231258 1.2401979 0.33379683 0.3197879
0.0014657406 0.16700739 0.0014738783 0.026595684 3.387843 0.009412802 0.8092773 7.598382
0.23811942 13.212791 13.972116 12.822555 5.1644526 0.116710775 13.165223 0.11006689
12.695146 0.027780594 0.7252005 12.642781

layers.2.running_var f4 [100]
00000000: d0d2 3e41 93ef ed3f 86e0 5841 14bc 4641
00000010: 33ba bb40 c20b 8d41 e200 3341 309f cd3d
00000020: a875 0641 c281 673f 6053 4341 e5b0 833f
00000030: bb76 0c40 b2ed 4941 844f 4541 56a1 4c41
00000040: fd86 563f a93c 993c d8c6 0340 497c 463d
00000050: e990 8e3d 6e51 9d3f e149 3541 6a31 4a3e
00000060: 9886 6641 0400 0000 6b6d a53c 1328 423f
00000070: 007d dd3d 4297 ef3e 8c2c 4241 275e cd3c
00000080: ca73 5541 1bd0 8141 3111 1f3f 21dc 2e41
00000090: 87fd 9c3f 7c57 123b 0400 0000 89ed 8241
000000a0: 1b40 fe3c 00c1 ef40 1957 5b41 19cc 7641
000000b0: 1118 403f f686 6f41 2424 3241 8ea9 3041
000000c0: af46 1041 9159 7c41 0400 0000 45a1 d33c
000000d0: d2e3 4241 37e9 8b41 d0ba e03b a825 9a3f
000000e0: 4f5d 573f 0b0c e23d af0d d940 0400 0000
000000f0: 9478 9641 e1ee c43f a66c 663e 0604 243f
00000100: 5188 a93f fa55 2a41 92af 113f 1639 453f
00000110: 660e 383f 2d11 0c41 276a 863f a1e8 4341
00000120: 7264 6f3e 88e2 8341 0400 0000 7b47 7f3f
00000130: e737 e53d 3563 2e40 290a 3f3f b15e 693f
00000140: d983 dd3a 437f 443f db26 e43a 4a03 ca3d
00000150: 2153 0a41 6bd9 cc3c 4880 ab3f 5dab 4a41
00000160: 4252 8b3e 3933 2e41 addd 5a41 faa4 6d41
00000170: c1e8 3141 d81a 3c3f d529 0d41 22a5 113e
00000180: bf80 2d41 de97 223e 0ae4 943f 40e9 5c41
11.926468 1.8588737 13.554815 12.4209175 5.8664794 17.630741 11.187716 0.10040128
8.403725 0.9043237 12.207855 1.0288359 2.1947467 12.620531 12.331913 12.789389
0.83799726 0.018705683 2.0590115 0.04845837 0.06961233 1.2290475 11.330537 0.19745412
14.40786 6e-45 0.020193776 0.758424 0.108148575 0.46795088 12.135876 0.02506931
13.340769 16.226614 0.62135607 10.928742 1.226487 0.0022329977 6e-45 16.365984
0.031036427 7.4923096 13.708764 15.424829 0.7503672 14.970449 11.133823 11.041395
9.017257 15.771867 6e-45 0.025833735 12.18062 17.488874 0.0068582073 1.2042742
0.8412675 0.11037453 6.7829204 6e-45 18.808876 1.53854 0.22502384 0.6406864
1.3244725 10.64599 0.56908524 0.7704023 0.7189697 8.754193 1.0501145 12.244294
0.2337816 16.485611 6e-45 0.99718446 0.11192303 2.724805 0.7462488 0.9116011
0.0016900256 0.76756686 0.0017406599 0.098639086 8.645295 0.025006017 1.3398523 12.666837
0.27211195 10.887506 13.67912 14.8527775 11.119325 0.7347846 8.822713 0.1422315
10.843932 0.15878245 1.1632092 13.806946

layers.4.weight f4 [50, 100]
00000000: 22d3 8bbd 69ba 973e 84f8 423e 2a14 3cbe
00000010: 63ce be3e 6063 493e a354 9c3e fd9d e5bf
00000020: 4da6 493f 7fa8 263c 36b2 fc3d 560a e1bd
00000030: b22d 43be e9d5 a73e 2da3 c53d 7ee1 ebbd
00000040: eef1 f33d a250 a93e c0d1 3cba 9de9 90bf
00000050: 783f 793e 9147 2dbf 60d3 873e e591 be3f
00000060: 8600 083f 6ca3 73bf 06ea c7bc d449 93bd
00000070: f9bf 873f dfa0 0ebb 21ba 6cbd aa05 f63d
00000080: f700 923e 95ac a43e 7670 57be ec48 bb3e
00000090: e25a aebb a218 3d3f b43c 8abe e6e3 9f3e
000000a0: 1187 3cbe 7a4f 463e 016f 08bf 1dbf db3e
000000b0: 3083 773e 3dc5 343d 9f87 963e c790 0b3e
000000c0: 73c5 d53e b882 efbe 224c 043f 6a21 de3e
000000d0: 5891 1d3f 94e7 d33a 062d 8b3e e821 48be
000000e0: 503a 1fbf f63c ce3d cddf e73e 33da 713f
000000f0: d907 e4bb cf7e bbbe 0e23 34be 0870 dd3e
00000100: f8bb 18bf 57f5 13bf c65a bf3d ce7a 1cbf
00000110: 9f3a 1cbe 9617 4b3e 0aa5 fcbc ec40 6bba
00000120: b611 e13e cff3 db3d cfbb 4e3f 81c4 1c3e
00000130: 75ff 2d3f 6e2c cf3d 35c0 56bc 2ece c6be
00000140: 337e 3abf 73ee 5dbe e6c9 5c3e c5c2 aebe
00000150: ac17 123f bb8d 43bf 5f61 8b3d 9c0e 94bd
00000160: 9cc7 073f f42c ef3e 1008 9d3d 439e 3e3e
00000170: 265a 103f 611b 203d 6a59 5e3e d496 633f
00000180: b519 02be bd0a b6be 002b 5d3e 7482 043f
00000190: d214 57be 3d33 dabe c952 5d3f 71b6 79bf
000001a0: dda6 563e 791f debf 847a 713e 32ef 46be
000001b0: fb8d 28bf 7498 ba3e f54c b4bf d069 24be
000001c0: 637b 2cbf 57af 9dbf f4c1 9abf e986 63be
000001d0: d835 a9be 9d3f a2bf 9763 aabd c633 f73e
000001e0: a03d 6ebe 7cc8 a33f d83a 4cbf ad9d cfbe
000001f0: 2d4d 7abf 5053 ccbe 3d16 a2be 3dc9 f43c
00000200: 271f edbe 0112 9b3d bf04 6ebd 9bad 323f
00000210: 8d6c 74bf 06cd 8abf 7811 4b3d fe61 25bf
00000220: 6032 883f a3ae b13f 8faa 4ebe 835f 15bf
00000230: f460 eb3e e911 5cbf 089e 373f 34d1 68be
00000240: fedf f53d e2a4 cfbf d2bb 07bf 5db7 93bf
00000250: a7fb f2be bae7 a7bf 8520 533f 4bc7 a73d
00000260: 18de 0fbe da62 c8bf 2692 b93f a967 4bbf
00000270: abb1 f83e a3a5 99bf bd64 4bbd f14c 4c3f
00000280: 481c 9cbf 529c e73f e6aa 0fbf 3961 103f
00000290: 0296 143f b778 aa3f 5bce 093e 0c02 a73e
000002a0: a2c0 8d3e 1221 8abe 7308 7a3f 6aa5 a0bf
000002b0: ecb2 3fbf cf29 a3bf b497 093f e6b0 3b3f
000002c0: beb9 5dbe b532 e5be 717b be3e 6240 6dbe
000002d0: 939b f6bf b01e 97be 569d 10c0 bd34 c63e
000002e0: 1aee a33f 59d1 49bf baff b43f 19d2 8ebf
000002f0: e590 b53f b2ea acbe e643 dbbf 2393 0cbf
00000300: aba2 bfbe a0e7 05be 404b 29bf ab30 3c3e
00000310: 27ae a33b e4ac e23e dd35 7a3f 4aee 30bf
00000320: 1779 84be b060 e03d f6cd 2b3f 18a3 263f
00000330: 7a99 253f f9f1 e83d aed1 d83e 775f 04c0
00000340: 9277 383d 8b1c 0cbf 0849 68be 4183 9bbe
00000350: cf12 3ebe a928 a93e 3bcc 02bf 918a 0c3e
00000360: b7c0 5fbe 2ec5 023e 19e6 debd 8cec 1bbf
00000370: 6665 613e 63db 1cbf cada 9cbc 03d1 c63f
00000380: efc1 d93e 5b0a b23e f7d3 0b3f 3ab2 af3e
00000390: f853 923c c455 dfbd e292 fc3d a7aa e73d
000003a0: 83cf f43e 98ca c63e 04ae 333e 58fa e13e
000003b0: 9c54 c1bd e4f8 9f3e d610 b13e 330d b2bd
000003c0: 97c0 22bf 404e ac3e 26ff fe3e 530a 183f
000003d0: d0ee 64be db8a cabb 7179 b33d 7adf 5d3e
000003e0: 012c 723f c303 e63e 4f0f 703e 196a b0be
000003f0: 3809 14be c2f1 bf3e 3c7e 733f 0187 223e
-0.0682738 0.29634407 0.19040114 -0.18367067 0.37266836 0.19666815 0.30533323 -1.7938839
0.7876938 0.010172009 0.123386785 -0.109882995 -0.190604 0.32780388 0.09650264 -0.115176186
0.11911379 0.3306933 -0.0007202886 -1.1321293 0.24340618 -0.67687327 0.26528454 1.4888273
0.531258 -0.95171237 -0.024403583 -0.07191816 1.060546 -0.0021763367 -0.057794694 0.12012799
0.2851636 0.3216292 -0.21038994 0.36579072 -0.0053208927 0.7386571 -0.26999438 0.3122856
-0.18410899 0.19366255 -0.5329438 0.42919245 0.24171138 0.044133414 0.29400346 0.13629447
0.41752204 -0.46779418 0.5167867 0.43384868 0.615499 0.0016167038 0.27182788 -0.19544184
-0.6219835 0.10070221 0.45287934 0.9447357 -0.0069589433 -0.36620185 -0.17591497 0.43249536
-0.5966182 -0.57796234 0.093434855 -0.61124885 -0.15256737 0.19833216 -0.030840416 -0.00089742127
0.43958825 0.10739862 0.80755323 0.15309335 0.6796792 0.10115896 -0.013107349 -0.38829178
-0.72848815 -0.21672992 0.21561393 -0.34132972 0.5706737 -0.7638814 0.068056814 -0.07229349
0.53038955 0.46713984 0.076675534 0.1861506 0.56387556 0.03908861 0.21713796 0.8890202
-0.12705119 -0.35555068 0.21598434 0.51761556 -0.21004036 -0.42617217 0.86454445 -0.9754401
0.20962091 -1.7353355 0.23581892 -0.19427183 -0.65841645 0.36444438 -1.4085985 -0.1605599
-0.67375773 -1.2319134 -1.209044 -0.22219433 -0.33048892 -1.2675663 -0.083197765 0.48281687
-0.23265696 1.2795558 -0.7977729 -0.40549985 -0.9777401 -0.39907312 -0.3165759 0.029881114
-0.4631283 0.07571793 -0.058109995 0.6979615 -0.95478135 -1.0843818 0.049577206 -0.6460265
1.0640373 1.388142 -0.2018225 -0.58348864 0.45972407 -0.8596483 0.7172551 -0.22736055
0.12005614 -1.6222193 -0.53020966 -1.1540333 -0.4745762 -1.3117592 0.82471496 0.08192309
-0.14049566 -1.5655167 1.4497726 -0.7945505 0.4857305 -1.2003673 -0.04965662 0.79804903
-1.2196131 1.809458 -0.56120145 0.5639835 0.58041394 1.3318089 0.13457625 0.3261875
0.2768603 -0.26978356 0.9766914 -1.255048 -0.7488239 -1.2747134 0.53747106 0.733168
-0.21652886 -0.4476525 0.37203553 -0.23169091 -1.9266227 -0.295156 -2.259603 0.3871211
1.2807038 -0.78835064 1.4140542 -1.1157867 1.4184843 -0.33772808 -1.7130096 -0.5491201
-0.37428793 -0.13076639 -0.6613045 0.1837794 0.004995126 0.4427253 0.9773844 -0.691136
-0.25873634 0.10955942 0.67111146 0.6509261 0.6468731 0.113742776 0.42347473 -2.0683267
0.045035906 -0.54731053 -0.22684109 -0.30373576 -0.18561862 0.33038834 -0.5109288 0.13724734
-0.21850859 0.1277053 -0.108837314 -0.60907817 0.22011337 -0.6127226 -0.019147296 1.5532535
0.42530772 0.34773526 0.5462031 0.34315664 0.017862305 -0.1090503 0.12332703 0.11311846
0.4781457 0.38826442 0.1754685 0.4413631 -0.09439966 0.31244576 0.34583157 -0.08693924
-0.6357512 0.3365345 0.49804038 0.59390754 -0.22356725 -0.0061811036 0.087633975 0.21667281
0.94598395 0.44924745 0.2344334 -0.34455946 -0.14456642 0.37489134 0.95114493 0.15871812

layers.4.bias f4 [50]
00000000: 3dc0 3241 b48a cb40 fa1a 1f41 216d 8840
00000010: 46d7 1c41 3a06 b140 f805 2241 c107 db40
00000020: 82ab cc40 17ef 3341 2795 bc40 3bb0 bc40
00000030: fc28 e440 59f3 cf40 cbf4 bf40 4efb 6a40
00000040: 87c8 1f41 454b ca40 072c 2741 4545 f540
00000050: 8b93 0941 5631 fa40 98ae 1f41 5a0d 8b40
00000060: 489c 2a41 ebaf 0341 3715 0941 0345 e540
00000070: ddc4 0841 d718 5640 98e8 2741 a8a0 1b41
00000080: 6279 2241 41f7 fd40 e00f 3341 8af9 a440
00000090: ff3f 3341 f003 2641 0cb5 fd40 73cd ce40
000000a0: f89a da40 a329 2841 8021 4e40 3fff 4440
000000b0: 0415 2141 f544 2f41 efec 2b41 b3db 2a41
000000c0: c79f 9440 9db2 9040
11.171933 6.3606815 9.944086 4.2633214 9.802557 5.53201 10.126457 6.8446965
6.395936 11.245872 5.893207 5.8965125 7.130003 6.4984555 5.998632 3.6715884
9.986457 6.321688 10.448249 7.6647058 8.598521 7.8185225 9.980125 4.34538
10.663155 8.230449 8.567679 7.1646743 8.548062 3.345266 10.494286 9.726723
10.154634 7.9364324 11.191376 5.1554613 11.203124 10.375961 7.9283504 6.4625793
6.831417 10.510165 3.2207947 3.078079 10.067631 10.954335 10.745345 10.6786375
4.644504 4.5218034

layers.6.weight f4 [50]
00000000: d069 0242 63bb 0642 2679 0442 445d 0742
00000010: a333 0342 80b1 0842 1d4f 0342 5cb5 0642
00000020: ec0c 0842 9d05 0742 fd8a 0642 e080 0742
00000030: 8daa 0642 bd3f 0942 c250 0742 fd9f 0742
00000040: f3c2 0642 41b4 0642 5d52 0442 aa5a 0642
00000050: 3ba8 0742 91c9 0442 ef13 0442 9b82 0842
00000060: 9ab4 0442 953b 0442 a1c8 0442 f845 0642
00000070: 1b7e 0742 d6bd 0542 4ded 0542 89e9 0742
00000080: a19e 0342 4dce 0342 3616 0442 199e 0742
00000090: 70db 0242 16c8 0642 6b06 0442 6c70 0642
000000a0: 8f19 0542 bc26 0642 2151 0842 188c 0742
000000b0: 5411 0442 76ba 0542 69a1 0242 eada 0742
000000c0: d439 0742 d438 0842
32.603333 33.682995 33.11831 33.84108 32.800426 34.17334 32.82726 33.67711
34.01262 33.75548 33.63573 33.875854 33.666553 34.312244 33.828865 33.90624
33.69038 33.67603 33.080433 33.58854 33.914288 33.196842 33.019466 34.127544
33.17637 33.058186 33.195927 33.56833 33.87315 33.435387 33.48174 33.97806
32.90491 32.951466 33.02169 33.904392 32.714294 33.695396 33.006268 33.609787
33.27496 33.537827 34.079227 33.88681 33.016922 33.43209 32.657627 33.963783
33.806473 34.055496

layers.6.bias f4 [50]
00000000: 2c5d 73c2 c6f4 7242 3ae7 73c2 285f 7342
00000010: c3cc 72c2 9187 7342 3add 72c2 dfca 7342
00000020: ca21 7342 1204 74c2 bf08 7342 ebe7 7342
00000030: 0dff 72c2 d5ca 7342 2b7b 7342 b9c1 7342
00000040: 1cbf 73c2 66db 7342 a450 73c2 ca41 7342
00000050: e9e0 73c2 7c1c 73c2 aadd 73c2 14d2 7342
00000060: cd3c 73c2 e4ec 73c2 4ceb 73c2 0548 7342
00000070: db4d 73c2 6358 7342 301f 73c2 3a22 73c2
00000080: 3fdc 73c2 65aa 73c2 4ece 72c2 98ea 7342
00000090: efa1 73c2 c824 73c2 34dc 72c2 161b 7442
000000a0: 48c4 7342 6037 73c2 94d5 7342 ed08 7342
000000b0: 0945 73c2 d930 73c2 d667 73c2 aa8d 73c2
000000c0: ca79 7342 9a32 7442
-60.84099 60.739037 -60.975807 60.842926 -60.699963 60.88239 -60.71604 60.948116
60.782997 -61.003975 60.75854 60.976482 -60.749073 60.94808 60.87028 60.939182
-60.93663 60.964256 -60.82875 60.814247 -60.96964 -60.777817 -60.96647 60.955154
-60.809376 -60.98134 -60.979782 60.82033 -60.82603 60.836315 -60.780457 -60.783424
-60.965084 -60.9164 -60.70147 60.979095 -60.90814 -60.78592 -60.715042 61.02645
60.94168 -60.804077 60.958572 60.758717 -60.817417 -60.797703 -60.851402 -60.888344
60.868935 61.049416

layers.6.running_mean f4 [50]
00000000: ee0d 4541 93d1 8a40 fac0 3141 5042 4540
00000010: 06fa 3041 1347 ae40 7c31 3841 11b0 a840
00000020: 963d 9e40 53d5 3b41 bf14 ac40 681c a040
00000030: 6bc3 d740 f73c b140 0a8b 8740 5fcd 0e40
00000040: 82a5 2c41 daa5 8240 203d 2e41 db05 f040
00000050: 6ae9 0141 5be2 0241 87f1 3041 6a0b 3940
00000060: 90eb 3241 0c0b 3141 dc46 1441 e524 cc40
00000070: 2615 0c41 cf30 1340 6d0b 3541 fad2 1b41
00000080: 1a25 2d41 a852 ee40 b0b9 3941 83c8 3640
00000090: 9e5a 4041 d9ed 3541 c642 f540 b5a4 8b40
000000a0: 00ae ac40 3ea0 2441 1190 0440 56eb 1740
000000b0: da00 3241 799b 3341 d69d 3a41 8a48 2e41
000000c0: cb8f 4640 3017 3840
12.315901 4.338083 11.109613 3.0821724 11.061041 5.446176 11.512081 5.2714925
4.945018 11.739581 5.3775325 5.0034676 6.7426047 5.538692 4.2357225 2.2312849
10.790407 4.0827456 10.889923 7.500715 8.119486 8.180263 11.058967 2.8913217
11.18251 11.065197 9.2673 6.3795037 8.755163 2.299854 11.3152895 9.739008
10.821558 7.44759 11.607834 2.8559883 12.022123 11.370568 7.664401 4.363856
5.39624 10.289122 2.071293 2.3737388 11.125208 11.225457 11.663534 10.89271
3.1025264 2.8764153

layers.6.running_var f4 [50]
00000000: add1 2041 d04a 2242 07fc 1241 7a07 2942
00000010: 4cfe f140 6917 9941 fc25 fd40 0e71 2742
00000020: de46 4142 72a8 7e40 20e4 6641 7d86 a241
00000030: dcbd 0041 d6ff 5842 a201 1f42 6ceb a041
00000040: 3c60 8840 3051 0342 c21a 7840 b788 1d42
00000050: af64 9f40 0d25 4041 5df6 9c41 def8 2f42
00000060: dc7b 6640 ac50 9942 4c34 6b42 12d7 3742
00000070: 3703 d340 833c ac41 62a1 4042 316e 9c40
00000080: 18b3 fe40 4803 4f41 fc39 8f40 abd0 9f41
00000090: c70b af40 85d6 b240 fe7e 0d41 db42 1342
000000a0: 2159 3c42 a809 3d40 246a 9341 646c ed41
000000b0: 2d52 b840 768a ab40 a5f6 6a41 0265 3f40
000000c0: cc73 1942 0497 f141
10.05119 40.57306 9.18653 42.2573 7.562292 19.13643 7.910887 41.860405
48.319206 3.979031 14.430695 20.315668 8.046352 54.24984 39.751595 20.114952
4.2617474 32.829285 3.8766332 39.38351 4.9810405 12.009046 19.620295 43.993034
3.6013098 76.65756 58.80107 45.96003 6.5941424 21.529547 48.1576 4.888451
7.959362 12.938301 4.475828 19.976889 5.4701877 5.5886865 8.843504 36.81529
47.08704 2.9537144 18.426826 29.677925 5.760031 5.360652 14.685216 2.99054
38.363083 30.198738

layers.8.weight f4 [1, 50]
00000000: c24c 68c2 d375 6842 f8f7 67c2 6d37 6842
00000010: df90 68c2 3d11 6842 50ad 68c2 47f0 6742
00000020: ab7d 6842 aafe 67c2 dbab 6842 7fe3 6742
00000030: 67e9 68c2 1820 6842 132b 6842 6b12 6842
00000040: ca34 68c2 30e1 6742 247a 68c2 3f57 6842
00000050: bd09 68c2 7669 68c2 b7ec 67c2 0ff9 6742
00000060: 6b7c 68c2 3ad8 67c2 53b4 67c2 f76e 6842
00000070: 526f 68c2 1539 6842 ac58 68c2 21f6 68c2
00000080: fde1 67c2 0d15 68c2 adc2 68c2 3eb7 6742
00000090: 30e6 67c2 27ac 68c2 daeb 68c2 a876 6742
000000a0: 89c4 6742 ba6e 68c2 09d2 6742 257e 6842
000000b0: 8d92 68c2 6767 68c2 e32e 68c2 3d59 68c2
000000c0: 932b 6842 cf9f 6742
-58.07496 58.115063 -57.992157 58.054127 -58.141476 58.016834 -58.16925 57.984646
58.122723 -57.998695 58.167828 57.972164 -58.227932 58.03134 58.042065 58.017986
-58.05155 57.96991 -58.119278 58.0852 -58.00951 -58.10299 -57.981167 57.99322
-58.121502 -57.96116 -57.926098 58.108364 -58.10871 58.055744 -58.086594 -58.24036
-57.97069 -58.020557 -58.190113 57.928947 -57.974792 -58.168118 -58.230324 57.865875
57.94193 -58.10813 57.955112 58.123188 -58.143116 -58.10098 -58.045788 -58.087147
58.042553 57.906063
